backend/ml_models/audio_model(temp).pth (torch, 878532 bytes, 10 tensors)

net.0.weight f4 [32, 1, 80]
000000 2b 2d d2 3c e8 1e 26 3d 67 19 49 bd 2f b3 8e bc
       0.025656303 0.04055682 -0.04909649 -0.017419426
000010 47 da 04 3d 99 12 86 3d c3 09 bb 3d 06 60 42 3c
       0.032434728 0.06546516 0.09132721 0.011863714
000020 90 0e 9b bd c8 76 c9 3d 15 80 5c 3c b4 dd 77 bc
       -0.07571137 0.09837109 0.0134582715 -0.015128542
000030 89 ac 0b bc a6 4d 08 be 52 d0 17 3d ee 81 a6 bd
       -0.008525022 -0.1331087 0.037063904 -0.08130251
000040 65 f4 96 bc 5f 9f 02 be 55 dc 50 3d 44 b1 82 3d
       -0.018427083 -0.12756108 0.050991375 0.06381467
000050 4e bc e7 bd 2e e6 b4 bc c1 91 cd 3d 7b 2b 85 3d
       -0.11315213 -0.022082414 0.10037566 0.06502434
000060 27 8a f5 3d 51 57 3d 3b e6 49 6e 3d 23 ea 2a bc
       0.11989241 0.0028891156 0.058175944 -0.010431799
000070 91 f4 96 bd 9a 48 57 3d c5 b6 8b bc d5 6a 10 3d
       -0.07370866 0.052559473 -0.017054925 0.035258133
000080 01 cf a0 bd 07 66 88 3d 57 69 fb bd ed 3e 13 be
       -0.07851983 0.06660085 -0.12275951 -0.14379473
000090 d2 63 f9 bd 83 96 dd bd f2 36 c9 bd 6b d7 37 bd
       -0.12177242 -0.108197235 -0.09824933 -0.044883173
0000a0 8f 1a 49 bb 6e 5f ea bc be bc 36 bd 9b de f2 bc
       -0.0030685996 -0.028609958 -0.044613592 -0.029647162
0000b0 ec 17 d8 3d 24 93 94 bd e1 b9 d8 3d c5 df 1a 3e
       0.10551438 -0.07254627 0.105823286 0.15124424
0000c0 d6 80 1b 3d cb 31 94 3d e4 05 92 3b f3 1c 3b 3c
       0.037964664 0.0723606 0.0044562686 0.011420476
0000d0 99 29 73 3d ff a6 f5 3d a2 ed ec 3c 3e 89 23 bd
       0.059365842 0.119947426 0.028921906 -0.039925806
0000e0 53 36 46 3d 97 ab 96 bd ea 84 dc 3d 76 08 32 3d
       0.04839165 -0.07356947 0.10767539 0.0434651
0000f0 48 3b b8 3b 6e 66 d7 3d f3 e8 59 bb 36 51 91 3d
       0.0056223013 0.10517584 -0.003325042 0.07095568
000100 fd 64 56 3d 7c f7 ea 3d 8f 1d 81 3d 87 3c 9b bc
       0.052342404 0.11472985 0.06304466 -0.01894976
000110 7a cf f0 bd fe 39 bb bd 29 e5 8e 3c ca de 4b bd
       -0.11758323 -0.091419205 0.017443256 -0.049773015
000120 5b 78 a5 bc c2 fc 1b be 9d 19 74 bd 4a 02 9b bd
       -0.020198992 -0.15233138 -0.05959474 -0.07568796
000130 38 45 fb bd e8 b2 c1 bd 10 41 9f bd 52 04 ef 3d
       -0.12269062 -0.09457952 -0.077760816 0.11670746
000140 96 16 dc bb 7e 0b 3b 3d e9 72 21 bd ae 51 c3 3d
       -0.0067165596 0.045665257 -0.039416227 0.095370635
000150 f7 ca f2 bb 93 c8 ef 3c 64 ed 2a 3d 55 38 5c bd
       -0.007409449 0.029270446 0.0417303 -0.05376466
000160 ec 87 b8 bd 51 63 83 bd 07 ea 10 bd 8a bc 32 3d
       -0.090103 -0.064154275 -0.035379436 0.043636836
000170 c2 46 61 bc 50 71 02 bd c9 d3 ac 3d 3a 87 55 3d
       -0.01374978 -0.031846344 0.08438832 0.052130915
000180 e4 4d 67 3d 46 96 15 be d2 60 fe bd bb 86 f8 bc
       0.056470767 -0.14608106 -0.12420811 -0.030337682
000190 40 41 cf bc 43 93 9f 3d dd 96 a5 3d 11 74 b2 3c
       -0.025299668 0.0779176 0.080854155 0.02178386
0001a0 9c b8 dd bc fe b2 95 3d d1 63 a3 3d a2 9c 05 be
       -0.027065568 0.07309531 0.07978023 -0.13048032
0001b0 17 2f 4c 3d 97 6f 3a bd 51 92 a5 3c 40 bb 96 bd
       0.049849596 -0.045516577 0.02021137 -0.07359934
0001c0 a5 8b a3 bc b1 0b 50 3d 4c 18 ab 3d b7 26 87 3c
       -0.019964049 0.0507924 0.08354244 0.016497953
0001d0 85 b5 b1 bd a5 bd 7a 3d 32 30 de 3d 61 8d 0f bd
       -0.086772 0.061216015 0.10849036 -0.03504694
0001e0 ef ed d8 bd ff 8b 60 bd e3 9f 2b 3d 56 f9 9c bd
       -0.10592257 -0.05482101 0.041900527 -0.076647446
0001f0 b2 84 78 3d c8 25 41 bd af 67 81 bd 14 35 be bd
       0.060673423 -0.04715517 -0.06318604 -0.092874676
000200 32 48 f5 3d cd ac 6c 3d 16 5d a2 bd 6f 62 4e 3d
       0.11976661 0.057781983 -0.07927911 0.050386842
000210 43 c2 f5 bd 66 6f 1b be d7 11 15 be 33 91 77 bd
       -0.11999943 -0.15179214 -0.14557587 -0.060441207
000220 40 88 ec 3d a7 ae c0 3d 5c c0 f9 3d 59 e0 8c bd
       0.11549425 0.09408312 0.12194893 -0.068787284
000230 59 62 22 3d 5e 20 05 bb b7 38 a7 3d 08 23 a6 bd
       0.039644573 -0.0020313482 0.081651144 -0.081121504
000240 eb 4e 19 bd 97 3c 2f bc 7c e8 b8 3d a1 35 f5 bd
       -0.037428778 -0.010695598 0.09028718 -0.119731195
000250 dd f4 c7 bc 3a ac f9 bd 95 f3 d5 bd f1 0e 9a bd
       -0.024408752 -0.12191053 -0.1044685 -0.07522381
000260 fe 67 62 bc bb d8 0c 3e 10 a7 9a 3d 07 dc e4 bb
       -0.013818739 0.13754551 0.07551396 -0.006984237
000270 00 ca 93 bd 1a ed ea 3c 71 35 2d bd 33 4c 7c 3b
       -0.07216263 0.028677512 -0.042287294 0.0038497567
000280 91 bd c8 3c 8f f7 6c 3d 35 84 e0 3c d8 bc 2d bd
       0.024504455 0.057853278 0.027406791 -0.042416424
000290 67 56 44 3d 9d a4 18 3d a9 65 ec bc 48 71 7d 3d
       0.047933962 0.037266362 -0.02885707 0.06187561
0002a0 7e fd 04 3d d8 40 f8 bc 71 a1 d4 bc f0 e3 bf bd
       0.03246831 -0.030304357 -0.025955888 -0.093696475
0002b0 e5 ab 27 bd e2 47 8b 3c 7a e6 aa 3c cb cc a5 3d
       -0.040935416 0.01700205 0.020861853 0.08095702
0002c0 e8 ee bc 3d ac e9 08 3e ca 51 11 3c 9e 11 fa 3c
       0.09225255 0.13370389 0.008869598 0.030525979
0002d0 0c 95 5b 3d 64 aa f6 bd 25 39 e6 3c 23 2c ab bd
       0.05360894 -0.12044218 0.02810342 -0.08358028
0002e0 8d 05 02 be 68 73 3a 3d af d0 12 bd e0 db 1d 3d
       -0.1269743 0.045520216 -0.035843547 0.038539767
0002f0 06 3c 24 bc 12 bb 48 3d 30 51 07 3e 9e d6 0b 3d
       -0.010024076 0.04900653 0.13214564 0.03414022
000300 d7 e4 3f bd 52 c0 e4 bc c9 70 fa 3b 48 1d ad bd
       -0.046849098 -0.027923737 0.0076428396 -0.084528506
000310 72 f0 f2 bd 3f db bb bd dc ed 46 bb 95 7f 17 3e
       -0.118622676 -0.09172677 -0.0030354178 0.14794762
000320 19 dd 93 bc 7f c5 f2 3d 54 83 0d 3e cf 94 94 bb
       -0.018049764 0.11854076 0.13819629 -0.004534341
000330 dd ad e1 bc 3c d4 5c bd 12 15 75 bd 0a 73 c2 bd
       -0.027548725 -0.05391334 -0.059834547 -0.09494598
000340 77 6b 1d 3c 44 b8 01 be a4 60 b8 3d 2e 7f 6b 3c
       0.009608141 -0.12667948 0.09002808 0.014373584
000350 6c c5 e3 3d 32 21 24 3e a1 30 28 3d 5f bb 35 bc
       0.111216396 0.16028288 0.041062 -0.011092036
000360 d9 6d 0f 3e 14 1d c6 3d 4c 3a 8f bc 4a 7b 95 3d
       0.14006747 0.09673515 -0.017483853 0.07298906
000370 d5 27 8d 3d 9b 7e 39 bd 5e b0 0f be 2c 1a 07 be
       0.06892363 -0.045286756 -0.14032122 -0.13193578
000380 31 da f3 3c 34 61 e2 bd 86 84 38 bc a3 6b 1e 3c
       0.029767128 -0.11053696 -0.011262065 0.009669217
000390 cd 1d d4 bd ff fe 09 bd 05 12 18 3d b8 9d 8f 3d
       -0.103572465 -0.03369045 0.03712656 0.07012504
0003a0 43 0e f5 bd e9 65 e8 bc 2d 8a 54 3d fd 33 8a bd
       -0.11965611 -0.028368907 0.051889587 -0.06748197
0003b0 d5 76 4b bd 20 41 1c 3e 6c fa cb 3d 74 37 00 3e
       -0.049673874 0.15259218 0.099598736 0.12521154
0003c0 5b 2e 57 bd 75 a2 81 bc 79 83 f3 bd 83 11 76 3c
       -0.052534442 -0.015824536 -0.11890311 0.015018824
0003d0 3f 6b 06 bd 88 b4 20 bd 15 b1 09 3d 9e ca b6 bb
       -0.03281712 -0.039234668 0.033616144 -0.005578353
0003e0 cf e9 5d bd 09 b6 1b 3c 6e b7 52 bd 60 c9 6f bd
       -0.054178055 0.00950385 -0.051444463 -0.058541656
0003f0 6e d8 36 3d cf 30 eb bd 9f 0d ee 3b ac 8c 01 be
       0.044639997 -0.11483919 0.0072648074 -0.12651318

net.0.bias f4 [32]
000000 af d3 64 bc 2a e6 87 3b 18 78 6a bd 79 73 92 bd
       -0.013966485 0.0041473107 -0.057243437 -0.07150931
000010 d2 72 14 bc 5a 62 e8 bd ba 79 c9 bd c4 b6 bf bc
       -0.009060578 -0.11346884 -0.098376706 -0.02340258
000020 b3 0b 93 3c d0 64 1d bb 6f ea 84 3d 45 16 a3 bd
       0.017949915 -0.0024016388 0.06490027 -0.07963232
000030 eb 3c a2 bd 9e a8 cf bb 1d 37 21 3b 8f a5 e9 3c
       -0.079217754 -0.0063372394 0.00245995 0.028521327
000040 eb 0a c1 bc af 15 88 bc 68 7f e6 3c f7 80 76 bc
       -0.023564776 -0.016611902 0.028136924 -0.015045396
000050 b0 6f 0f be 20 3e 8d bc 08 d8 04 be e4 c6 30 bc
       -0.14007449 -0.017241538 -0.12973034 -0.010789607
000060 36 78 26 3d e5 2d 96 bc 32 68 84 bc db d4 8d 3c
       0.040641986 -0.018332431 -0.016162965 0.017313411
000070 c0 8a fb bd 8d 40 2d 3c 21 30 7d bc 6b 51 92 bd
       -0.12282324 0.010574472 -0.015453369 -0.071444355

net.3.weight f4 [64, 32, 5]
000000 85 67 07 3a a8 67 fe bc 89 3b 54 be 0f 35 f1 3c
       0.0005165267 -0.031055287 -0.20725836 0.029444246
000010 51 ca a4 bd c0 14 aa 3d 2f bb 3c 3d 6c dd 76 3b
       -0.08046401 0.08304739 0.04607695 0.0037668599
000020 f2 56 b5 3c 26 c0 8d bd ed 0e e1 3c 9b 24 7e 3d
       0.022136185 -0.06921415 0.027472937 0.06204663
000030 1d 6b 45 3d 28 9c 9c 3b db 4e 57 3d 93 ab 25 be
       0.048197854 0.0047793575 0.052565437 -0.16178732
000040 3d 54 43 be e6 e9 fd 3c f6 ff c8 3d a0 d2 01 3e
       -0.19075103 0.03099532 0.09814446 0.12678003
000050 18 6e b3 bd 36 1d 0a be 15 9f e8 bc a7 54 2b 3d
       -0.08761233 -0.13487706 -0.028396169 0.041828778
000060 6d 61 da bc d8 5f 5c 3d 8b 3d 25 3d f4 9a 65 bc
       -0.026657784 0.05380234 0.040341895 -0.0140139945
000070 86 41 ce 3c a0 72 9d bd fd 45 ea 3c 9c 93 f1 bd
       0.025177728 -0.076878786 0.028597826 -0.117957324
000080 1f 73 8b 3b c8 a1 67 3d c4 56 9e 3d e5 ce bf bd
       0.004255667 0.05655077 0.07731393 -0.09365634
000090 f7 81 1a 3d 3a 9d 29 bd 7b 5b c3 3b 00 fc e7 bc
       0.0377216 -0.04140971 0.005961833 -0.028318405
0000a0 1b fe c3 bd 73 10 27 bd 43 61 61 bc fd 8d f2 bc
       -0.09569951 -0.04078717 -0.013756099 -0.02960872
0000b0 b6 b0 53 3d e2 47 82 3c aa 05 99 3c 81 68 36 bd
       0.051682197 0.015903417 0.018679459 -0.044533256
0000c0 88 91 46 bd 82 61 02 be 58 e9 93 bd 91 92 99 bd
       -0.048478633 -0.12732509 -0.07222241 -0.074986584
0000d0 b4 31 7b bc d6 ae 83 bd af bb ae bd 3b f5 86 bb
       -0.015331674 -0.06429832 -0.085318916 -0.004118589
0000e0 28 40 02 be 1c ca c1 bd c1 1b 9f 3d fa be 7a bd
       -0.12719786 -0.094623774 0.077689655 -0.061217286
0000f0 59 20 e0 bd 08 d5 37 3d e5 37 4d bc 84 6c 15 be
       -0.1094367 0.044880897 -0.012525533 -0.14592177
000100 76 1d 50 bd ec 60 8e bd a6 26 20 be 0b 81 d2 3c
       -0.050809346 -0.0695208 -0.15639743 0.025696298
000110 8c 80 b0 3d 22 31 09 be a2 8b 38 bd 2f 32 20 bd
       0.08618268 -0.13397649 -0.04505504 -0.03911036
000120 7c d4 21 3d 97 de 61 3d 71 ed df bd 9b c6 61 bd
       0.03950928 0.05514392 -0.1093396 -0.055121046
000130 ef 49 af bd 6d 59 11 be a4 83 26 3c 99 91 1b 3d
       -0.085590236 -0.1419427 0.0101632215 0.03798065
000140 d5 fe 36 3c ac b7 2a bd 71 64 ca bc 11 12 a6 3d
       0.011169155 -0.04167907 -0.024706097 0.08108915
000150 9b af 4d bd c0 63 c5 bd 43 de bc bd c0 a8 36 3c
       -0.0502163 -0.096381664 -0.092220806 0.011148632
000160 5a 6b 86 3d 4e 3b 25 3c 1d 39 97 bd a8 9c 0b 3d
       0.065634444 0.01008494 -0.0738394 0.034084946
000170 9a c1 b8 3c 75 20 33 bd 49 3a 75 bd 37 65 15 3d
       0.022553254 -0.043732125 -0.05987004 0.03647348
000180 12 7d 96 3b 6f 0e cc bc 7f 91 5b bd ef 26 b0 bd
       0.0045925463 -0.024909226 -0.053605553 -0.08601176
000190 98 b4 c1 bd a1 7a db 3c e0 46 5b 3c db 4b e8 3d
       -0.09458274 0.026791872 0.013383597 0.11342593
0001a0 5f 09 bf 3d ae 6f 84 bd 4d 85 0d bd 99 1f f6 3c
       0.09327959 -0.06466614 -0.034550954 0.030044364
0001b0 37 ef 37 bd ac 91 d3 3a 85 a5 b3 bc f5 1a b9 3d
       -0.044905867 0.0016141436 -0.021929512 0.09038345
0001c0 d0 35 53 3e e1 4b 13 3e 2a 0d 54 3d c2 a6 ae 3c
       0.20625997 0.14384414 0.051770367 0.02131975
0001d0 31 1e b8 3c bd d0 a0 3d 89 32 9b 3c cb f2 04 3d
       0.022475334 0.07852314 0.018944995 0.032458108
0001e0 e4 e3 82 3d c7 2a 79 3c 60 45 eb bc 87 fc 25 be
       0.06391123 0.015207953 -0.028719604 -0.16209613
0001f0 c2 b4 78 bd 49 c5 8f bd 6d ac 11 bd 58 66 21 3d
       -0.06071926 -0.07020051 -0.03556483 0.039404243
000200 e2 7d 83 3d b0 3d 46 bd 27 7c 83 bd d4 de 8e bd
       0.064204946 -0.048398674 -0.064201646 -0.06976095
000210 db 59 46 3d c2 85 22 bd 09 0e 95 bd ed 2d 4d bd
       0.048425537 -0.039678343 -0.072780676 -0.050092626
000220 81 3b 4b 3c d6 c8 26 bd 17 ba ed bd 9d 43 8b bb
       0.012404324 -0.040718876 -0.116077594 -0.0042500035
000230 a4 c0 9b 3b 9b 8f 08 3e 9a 18 3e 3e ee 6c 28 3b
       0.004753189 0.13336031 0.18564072 0.0025699693
000240 68 a0 b2 3d d0 68 84 bb 26 01 51 3d f1 5f 5f 3d
       0.08722001 -0.004040815 0.051026486 0.054534856
000250 5f 98 fb bd be 4a aa bd 2e 10 91 3d a9 7c 7e bd
       -0.12284922 -0.08315037 0.07083164 -0.062130604
000260 33 f8 11 bd 48 72 30 bc e6 f7 70 bc 63 5f 2d 3d
       -0.03563709 -0.010769434 -0.014707541 0.042327296
000270 52 25 09 3b 93 29 84 3d f5 4b 7d bd cb 64 f9 3a
       0.0020926786 0.06453242 -0.061840016 0.0019027231
000280 f4 73 cf 3c 33 c5 8b 3d 00 81 87 3d 21 12 ab 3d
       0.025323845 0.06824722 0.06616402 0.08353067
000290 4f da 7b 3c 63 25 64 bd 73 06 95 3b 31 a6 72 3b
       0.015371873 -0.055699717 0.004547888 0.0037025327
0002a0 87 6f 2a 3d 29 e7 ac bd d8 ec 30 3d 5a 36 89 bc
       0.041610267 -0.08442528 0.04319462 -0.01674955
0002b0 e2 e5 81 bd 1e bb e3 3b bf 7f 5d 3d 5e f8 ba 3d
       -0.06342675 0.0069497963 0.054076906 0.091294035
0002c0 55 61 30 3c 0b 38 0b 3d 04 9f 47 3d 0e 61 d3 3c
       0.010765393 0.033988994 0.048735633 0.025803115
0002d0 5a df 62 3d ea 56 a7 bd f2 16 9c bc 19 ca 59 3c
       0.055388786 -0.081708744 -0.01905391 0.013292813
0002e0 b8 fd aa 3d 0b fa 85 bd ca d2 78 3c c2 d9 c7 bd
       0.08349174 -0.065418325 0.015186975 -0.09758331
0002f0 07 db 7f bd f2 ae 00 be fd 0c b8 bb a0 55 9c bd
       -0.06246474 -0.12566736 -0.0056167827 -0.07633519
000300 85 9c 1f bd 6c 9d 11 3d 3e dd 98 bd ab 6f 54 3d
       -0.038967628 0.03555052 -0.074640736 0.051864307
000310 c5 6c fa 3d a1 f5 1a bd 77 f1 a2 3d 66 ee 20 3d
       0.122277774 -0.037831906 0.07956212 0.039289854
000320 64 cc b3 3d 6a 2b c3 3d 97 a5 81 3d d1 ef e8 bc
       0.08779219 0.09529765 0.06330412 -0.028434666
000330 22 30 39 bd 64 23 c8 bc d2 d2 7f 3d 05 dc 53 3b
       -0.04521192 -0.024430938 0.062456913 0.0032327187
000340 8f 34 9b 3d 22 43 85 bd 71 e9 06 3d ec 9b e4 3c
       0.07578384 -0.06506945 0.03293747 0.02790638
000350 5e cb 93 bd f7 1b 0a bd 2a 31 3e bd b2 fa 23 bd
       -0.072165236 -0.033718076 -0.046433605 -0.040034004
000360 73 c6 9c bd 0b 61 3f be b9 3c bf bd c8 57 90 bd
       -0.07655039 -0.18689363 -0.09337754 -0.07047993
000370 6e a5 80 3b 46 58 c9 bd 9e d0 30 bd 18 4c 80 bd
       0.0039259708 -0.0983129 -0.043167703 -0.06264514
000380 cd 87 82 bd 3a a2 cc bb d1 9e f9 bd 25 d5 36 be
       -0.06373558 -0.006244925 -0.12188495 -0.17854746
000390 1a 43 c4 bd 45 06 6b bc d1 b4 64 3d e6 47 60 3c
       -0.09583111 -0.0143447565 0.055836502 0.013689017
0003a0 0f b4 3e 3c ed 8b 77 bd 7a e7 ab 3a 7e 03 11 3d
       0.011639609 -0.060436178 0.001311525 0.03540372
0003b0 be d9 87 3c 52 0e 9a 3d 62 fe 69 3c fa 73 b9 3d
       0.01658332 0.07522263 0.014281841 0.09055324
0003c0 44 ad 20 3d 29 6a 73 3d e0 e3 27 bd 52 d9 15 bd
       0.03922774 0.059427414 -0.040988803 -0.036584206
0003d0 83 43 d0 bc 19 bd a7 3d 3e 94 84 bb a5 b4 bb 3d
       -0.025422817 0.081903644 -0.004045992 0.091653146
0003e0 74 23 14 3d 85 47 4d bd db 30 80 3b c6 c2 9a bd
       0.036166623 -0.050117034 0.003912074 -0.07556681
0003f0 f4 1d c4 3c 31 dc 71 3d 37 89 ad 3c 57 b5 4d bd
       0.023940064 0.05904788 0.021183593 -0.050221767

net.3.bias f4 [64]
000000 a2 d4 ef 3c 76 b5 18 3c 9c e1 6f bd a6 56 c2 bd
       0.029276196 0.009320607 -0.058564767 -0.09489183
000010 4f d4 b0 3d 08 0a 43 bb 6d de 88 bc db a8 c0 3b
       0.08634245 -0.0029760618 -0.016707623 0.005879504
000020 78 27 b0 3d f8 7b 09 bd 3d 21 6f 3d 9b 99 4e 3c
       0.08601278 -0.03356549 0.058381308 0.012609865
000030 4b 7c cf 3c 86 ac da bd c8 c1 7d 3d 43 b4 98 3c
       0.025327822 -0.106774375 0.061952382 0.018640643
000040 e9 51 c6 bc 7c d9 8f 3d 66 ea 0d bc d4 f0 55 bd
       -0.02420898 0.07023904 -0.008661842 -0.052231625
000050 22 b4 3c bd 15 ff 75 3d 38 4c f1 bc b4 28 db bd
       -0.046070226 0.06005772 -0.02945529 -0.10701123
000060 16 b1 0b bd 8a b3 79 bd 2a 5f f0 bd db af 1f bd
       -0.03410443 -0.060962237 -0.11736901 -0.03898607
000070 a6 a1 dd bd e2 6e 9d 3d 37 bb 4c bd bb 51 7c 3d
       -0.108218476 0.07687165 -0.04998323 0.06160138
000080 b4 38 a3 bc e6 e5 cd 3b e3 5a b2 ba d8 f0 73 3d
       -0.0199245 0.0062835095 -0.0013607409 0.05955586
000090 fe f0 8f 3c 98 48 c1 3d 68 e2 a6 bd f1 83 8c bb
       0.017570969 0.09437674 -0.08148652 -0.0042881896
0000a0 87 f7 fb bd 28 6f 8e 3d 66 e1 9d bd 02 8b b6 3d
       -0.123030715 0.06954795 -0.07709007 0.089132324
0000b0 d8 27 c1 3c 9d 38 c0 bd 06 7b 64 bc 60 56 5f bd
       0.02357857 -0.09385798 -0.013945347 -0.054525733
0000c0 f9 c6 75 bd 82 ac c3 bd bb 55 a7 3d 10 0a fc 3c
       -0.06000421 -0.09554388 0.08170649 0.030766517
0000d0 60 a8 92 3d 0b f1 71 bc 8c d7 bb 3d 7e 2a 3f bd
       0.07161021 -0.014766942 0.09171972 -0.046671383
0000e0 f9 44 9a bd 68 8f 40 bd f5 84 db bd 8f cd 0b 3d
       -0.07532687 -0.047011763 -0.10718719 0.034131583
0000f0 3f 7e e4 bd 85 b7 6f 3d e7 f3 de bd e2 f8 89 bd
       -0.11156892 0.058524627 -0.108863644 -0.06736924

net.6.weight f4 [128, 64, 5]
000000 7f 91 34 3d 18 4e 4a bd 62 a2 63 bd 93 39 2d bc
       0.04408407 -0.049390882 -0.055574782 -0.010572809
000010 bf 7d a7 3d 52 59 52 be 4e ca c3 bd 08 bc 13 be
       0.08178281 -0.20541885 -0.09560071 -0.14427197
000020 34 1b c8 bd 09 52 6b bd 03 b6 8a bd 24 96 86 bd
       -0.097708136 -0.05745128 -0.06772997 -0.06571606
000030 64 b2 86 3c 2d 84 64 bd 02 05 ea 3c 90 29 6b 3b
       0.016442485 -0.055790115 0.028566841 0.0035882927
000040 d2 1f 3c 3d eb 40 ff 3c 1f 97 f1 3b 24 8d a3 3c
       0.045928784 0.031158885 0.0073727514 0.019964762
000050 c5 39 e1 3c 99 15 89 3d f5 74 97 3d 23 3a 44 3d
       0.027493367 0.066935726 0.07395355 0.047907006
000060 21 5f fb 3d c1 52 15 be 4c 9c 19 be ca 91 0e be
       0.12274004 -0.1458235 -0.15001029 -0.13922802
000070 75 76 1b bd bb cd 95 3d 63 26 fe bc 42 9c bd bd
       -0.037954766 0.073146306 -0.031024164 -0.092583194
000080 34 99 28 bd 8a 42 0a 3e 55 50 1d be 19 e1 c5 bd
       -0.04116173 0.13501945 -0.15362675 -0.096620746
000090 fe 43 8c bd b8 c8 5c bd ec 0b 5c bc 58 9e 62 bc
       -0.06848906 -0.053902358 -0.013430577 -0.013831697
0000a0 f1 48 71 bc cc 80 29 3d 1c 13 3d 3c 7f 54 bd 3d
       -0.014726863 0.041382596 0.011540201 0.09244632
0000b0 b3 8e 08 be 2b 42 07 be 82 3d 6b be 46 25 76 bd
       -0.13335685 -0.13208835 -0.22972682 -0.06009414
0000c0 6a 0f 16 3d 31 23 d8 bd 16 51 91 bd 41 27 3b bd
       0.036635794 -0.10553587 -0.07095544 -0.045691732
0000d0 03 7c 2d bd 5c 4b 5d 3c 08 1b a3 bd 8b 14 e8 bd
       -0.042354595 0.013506737 -0.0796414 -0.11332043
0000e0 f9 05 43 bd e4 c6 3d 3c ab 38 bf bd f4 a9 12 be
       -0.047613118 0.011583064 -0.093369804 -0.14322644
0000f0 24 0e b2 bd f7 7c 40 3a 73 de 21 bd 2c 6d 7f bc
       -0.08694103 0.000734284 -0.039518785 -0.015589993
000100 9e 3f cd bd 16 52 80 bd 06 6b c3 3a b7 7d 3e 3d
       -0.100219 -0.06265657 0.0014909215 0.04650661
000110 05 a1 34 3e f0 68 13 3e 63 5e 6f bc 6e 61 24 3d
       0.17639549 0.14395499 -0.014609906 0.04013198
000120 a4 e1 9f 3d 52 c5 f2 bc 6f 6f 57 3b 64 65 16 bc
       0.078067094 -0.029635105 0.0032872816 -0.009179447
000130 31 63 35 bd b7 c2 9c bd 44 90 ba bd 3c 5d f3 bc
       -0.04428405 -0.076543264 -0.09109548 -0.029707544
000140 c4 cd 1d be fb 76 98 bc 46 b2 b0 bb 8a 8f 39 bd
       -0.15410525 -0.018611422 -0.0053923456 -0.045302905
000150 49 7b 63 b9 d8 42 3c bd ca 79 d0 bc a8 95 99 bd
       -0.00021694334 -0.045962185 -0.025448699 -0.07499248
000160 db 83 15 3c 5b 4d b8 bd fb 3d 45 be 05 4f 4b be
       0.009125675 -0.089991294 -0.19261925 -0.19854362
000170 a5 da ba bc cf a8 da bc 89 5b 03 be 74 1b 46 bd
       -0.022809336 -0.026691822 -0.12827887 -0.048366025
000180 6c d2 20 be cf 5b 9e 3d 87 85 c1 bd bf b2 14 be
       -0.1570527 0.07732355 -0.094492964 -0.14521311
000190 7b 2e 3e bd d8 ad 8b 3d 61 ec 0b 3d 88 c1 17 3b
       -0.046431046 0.068202674 0.034160975 0.0023156125
0001a0 b7 19 b0 bc 8e fd c2 bc c5 6f cf 3c dd b1 26 3d
       -0.021496637 -0.023802545 0.02532185 0.040696967
0001b0 d3 45 62 3d a2 a2 e8 bd bc fe f8 bd 52 8f 94 bd
       0.05524237 -0.11359145 -0.12157962 -0.07253899
0001c0 ec dd 84 bd 52 9f 95 bd 38 a8 d7 bd 7f f7 f0 bd
       -0.06487641 -0.073057786 -0.10530132 -0.11765956
0001d0 36 75 65 3d e5 d0 a6 bd ac ec 29 bc ab 82 a9 bc
       0.056019984 -0.08145312 -0.010371368 -0.02069219
0001e0 ad ad 11 be 88 a3 b2 bd 7a 3c e8 bd 25 2e 5d bd
       -0.14226408 -0.08722597 -0.1133966 -0.053999085
0001f0 7f 50 83 3d e3 e8 be bd 24 20 03 3d 4a 0e 88 bd
       0.06411838 -0.09321763 0.032013074 -0.066433504
000200 b2 fd 56 bd 7d d3 75 bd d9 50 b0 bc be 66 a6 3d
       -0.052488036 -0.060016144 -0.021522926 0.08125065
000210 7f a6 23 bd ed 99 21 3c 2e 88 e9 3c bd 3b ee bd
       -0.039953705 0.009863359 0.028507318 -0.11632488
000220 96 1f eb bc 1e 14 03 3d 44 0d ff bd 85 50 07 3d
       -0.028701585 0.032001607 -0.12453702 0.033035774
000230 80 67 eb 3b 7a b7 bd 3c c4 14 e3 3d 8b fd 99 bd
       0.007183969 0.023158778 0.11087945 -0.075190626
000240 2d 39 e9 bd d1 35 85 bc 27 e6 b1 3c a6 40 af bc
       -0.113878585 -0.016261013 0.02171619 -0.021393131
000250 5c 24 c4 3d 2e d9 9a bd 18 7c 22 b8 b8 26 b1 bd
       0.095772475 -0.07560955 -3.873938e-05 -0.08649963
000260 ee 56 94 3d b9 70 9b bd 5c 69 23 bc 30 fd aa bd
       0.07243143 -0.075898595 -0.00997385 -0.08349073
000270 55 32 1d bd 37 6c 9a bc e4 f0 1a bd f6 b0 e1 bb
       -0.03837808 -0.018850429 -0.037827387 -0.0068875505
000280 dd 4e 02 3d 1f d1 ec bc f6 69 a0 bb 49 b6 f2 3c
       0.03181349 -0.02890831 -0.004895444 0.029627936
000290 f3 59 cf bc 0d 11 8e bb c0 98 05 be 05 bc 0a 3d
       -0.025311446 -0.0043355287 -0.13046551 0.033870716
0002a0 ea 12 18 bd 94 89 76 bd ac d9 24 be 00 cd 0c 3e
       -0.037127413 -0.0601898 -0.1609866 0.13750076
0002b0 35 1e e7 3d bd f0 33 3e 35 67 e1 3d 7d 02 73 bd
       0.112850584 0.17572303 0.11006013 -0.059328545
0002c0 80 4d 93 bd 9c 02 fd bc c9 bc 74 3d a6 d2 59 be
       -0.07192516 -0.030885033 0.059750352 -0.21271762
0002d0 76 13 94 bd 9b 9f f2 bd 60 e3 a7 bd b8 d5 23 3d
       -0.072302744 -0.118468486 -0.08197665 0.03999874
0002e0 74 bf 82 3d d8 f2 2b 3d ee 10 c3 3d 04 5e d0 3c
       0.06384173 0.04197964 0.095247135 0.025435455
0002f0 43 94 3e bd 44 2d 96 bc 0d 7b 84 3d 4a aa 9e 3d
       -0.046528112 -0.018332131 0.064687826 0.07747324
000300 cf b0 13 bb 08 2e a1 bd 7d 65 7c 3d f1 db af bd
       -0.0022535806 -0.07870108 0.061620224 -0.08586872
000310 ca 55 ac bd 5f fa 85 bd 03 0c 92 bc 42 5d 45 bd
       -0.084148005 -0.06541895 -0.017827993 -0.04818464
000320 6b 8e 0f bd 50 5f 5f 3d 74 e3 3b bd 4a 4a e2 bd
       -0.03504793 0.054534256 -0.045871213 -0.11049326
000330 e6 1e 26 3d 59 f6 c0 bc 64 93 91 bd 56 f9 bc 3b
       0.04055681 -0.023554968 -0.07108191 0.005767028
000340 65 ec c9 bd 9f 3e 2a be 52 ae 8c bc 06 b5 6d bd
       -0.09859542 -0.1662545 -0.017172966 -0.058033966
000350 cb c4 74 3d 74 6c 1c be a5 1b 63 bc 00 6c 0d bc
       0.05975799 -0.15275747 -0.013861571 -0.008631706
000360 f7 d6 cc 3d 2c c2 cc 3d ee 86 0e 3e a4 3a d0 3d
       0.10001939 0.09997973 0.13918659 0.10167435
000370 59 ed ae 3b 74 95 2a bd 04 7d 3a 3c c4 7f 9b 3b
       0.0053383526 -0.041646436 0.011382345 0.0047454555
000380 d7 12 0b bb 77 1b f8 bd 4e 86 4a bd 82 11 1d bd
       -0.0021220946 -0.121146135 -0.04944449 -0.038346775
000390 08 55 ed b9 ea cc b5 3d 22 b5 45 bc 4e 25 31 bd
       -0.00045267516 0.08876975 -0.012067111 -0.043248467
0003a0 ec bb 1b bc a8 8e 74 3c 2d 10 b0 3c 6a 85 1b bd
       -0.009505253 0.01492659 0.021492088 -0.03796903
0003b0 f3 3f 33 bd 67 4a cc 3c cd de b4 bd ff 9c 94 3d
       -0.04376216 0.024937822 -0.088315584 0.07256507
0003c0 42 da 22 bd b6 42 9c bd 4c b2 b0 bd 23 c8 e0 bd
       -0.039758928 -0.076299116 -0.086277574 -0.10975673
0003d0 c9 b9 8b 3c 3c 61 3f be f2 19 33 bd bf a8 2a bd
       0.017056363 -0.18689436 -0.043725915 -0.041664835
0003e0 ca 12 78 3d 12 01 b7 3d 6e 3f bf bd 51 7d c8 3c
       0.060564794 0.08935751 -0.0933827 0.024473818
0003f0 1a 33 c3 3c 59 7b 09 3d 41 7f 0d 3d fa 36 8f bd
       0.023828078 0.0335649 0.034545187 -0.06992908

net.6.bias f4 [128]
000000 92 8e 8c bd 66 53 67 bd 77 64 1d bd 20 91 e0 bc
       -0.06863131 -0.05647602 -0.03842589 -0.027412951
000010 5f 73 eb bc 8c 4b 11 3d b6 ef f5 3c 07 ca c1 bd
       -0.028741537 0.035472438 0.03002153 -0.09462362
000020 e7 ca 9b bd e0 c6 bf bc e3 c1 de bc aa ce 96 bd
       -0.0760706 -0.02341026 -0.027192062 -0.07363637
000030 df 5f bd bc 10 73 2d 3d ac af 9b bd 4f 70 7b bd
       -0.023117004 0.04234606 -0.07601866 -0.061386403
000040 e1 0c 1b bb c7 94 28 bd 5b 48 08 bd b3 cf 3c bc
       -0.00236588 -0.04115751 -0.03327213 -0.011524129
000050 13 9c 13 3d 67 8d 28 3d 4d 34 4f bb d6 a9 01 bd
       0.036037516 0.041150477 -0.0031616867 -0.03165611
000060 93 90 8a 3d 6b ed 29 3d d0 3d 97 bc 39 40 88 bd
       0.067658566 0.041486185 -0.018462092 -0.066528745
000070 a4 d6 b7 bd 7e 4d 51 3c 65 b6 4d 3d 04 75 03 be
       -0.08976486 0.012774823 0.050222773 -0.12837607
000080 30 4e 53 3b 08 44 80 3c b6 2b d2 3b db f7 81 bd
       0.0032242648 0.01565744 0.006413902 -0.06346103
000090 25 fe 4f 3c 86 9e 52 bd a2 83 12 bd e3 ef cc 3c
       0.01269487 -0.05142071 -0.035770066 0.02501673
0000a0 71 c2 c8 3c 46 fa 21 3d a1 3a 34 3c 13 7a 44 3c
       0.02450678 0.03954532 0.011000306 0.011991995
0000b0 50 a0 ab bb 72 7e 04 3d 00 7f 10 3d a5 8c 0c bd
       -0.0052376166 0.03234715 0.035277367 -0.034313817
0000c0 3b d7 83 bb 8c 77 0b 3d 28 39 89 bd 7a e1 ad bd
       -0.00402346 0.034049556 -0.06700355 -0.08490272
0000d0 62 e8 98 bd 26 7a 24 bd 6c 81 cc bd b3 0f 4f 3d
       -0.074661985 -0.040155552 -0.09985623 0.05055208
0000e0 d8 97 3e 39 33 30 33 3c 00 80 2c bd 5f 5e 10 b9
       0.00018176378 0.010936785 -0.042114258 -0.00013768066
0000f0 72 4b 24 3d af 96 00 bd 5f b2 40 3d bb aa 67 3c
       0.040111013 -0.031393703 0.047045108 0.014139826
000100 3d 03 7e bb 0e 53 44 3d f8 25 9c bc 10 b3 67 bc
       -0.0038759254 0.04793077 -0.019061074 -0.014141813
000110 6e 8e 15 bd cd 0f 6e bd 22 04 c0 bc 18 ca 83 bd
       -0.036512785 -0.058120538 -0.02343947 -0.06435031
000120 bd b5 6c bd e1 3f 52 bc 30 16 14 bd e4 e2 63 3d
       -0.057790507 -0.012832613 -0.036153972 0.0556363
000130 55 e6 be bc 5b 1a d2 3c 43 6b b5 bc 2f 72 aa bb
       -0.02330319 0.025647333 -0.022145873 -0.0052016
000140 67 59 90 bb 30 ff 84 bd fa d6 46 bc ab 1b 1a bd
       -0.004405189 -0.06493986 -0.012136215 -0.037624042
000150 91 c2 f9 3c 3d 3e 6b bc fe 30 93 3a 2d 1b 07 3d
       0.030488284 -0.0143581005 0.0011229811 0.0329849
000160 25 a7 08 bd 29 9e 7d 3d 99 74 87 3b 4f c6 54 3d
       -0.033362526 0.06191841 0.0041337726 0.051946934
000170 72 41 94 bd be 64 15 bd 4d 92 16 3d a5 03 3c 3d
       -0.07239045 -0.03647303 0.036760617 0.045901913
000180 c4 fb 48 3d aa f2 a0 bd 22 c4 ad bd c3 90 6e bd
       0.049068227 -0.078587845 -0.08484675 -0.058243524
000190 27 a4 04 bb ad 15 2b bc 32 e0 cc bd 45 b4 85 bc
       -0.0020239444 -0.01044218 -0.10003699 -0.01632131
0001a0 3a f7 d1 bd b9 ee 54 bc 4b 47 99 3d c4 7f 89 3c
       -0.10252233 -0.012996369 0.07484301 0.016784556
0001b0 64 21 3b 3d 9c 10 aa bd b4 c9 e1 bc 5c 9a c3 bd
       0.04568614 -0.08303949 -0.027562 -0.09550926
0001c0 e4 95 67 bd f1 bd 71 bd 15 ca 87 bd 4e df a0 bd
       -0.05653943 -0.059019033 -0.06630341 -0.07855092
0001d0 14 6a 94 bd 5a 7f 71 bc b5 e5 73 3c e9 af 87 3d
       -0.07246795 -0.014739836 0.014886309 0.06625349
0001e0 df b6 cc 3c 04 43 98 bc 89 42 a0 bd 06 6b 59 3d
       0.024989543 -0.018586643 -0.078251906 0.05308058
0001f0 8b ed 7a bc 80 42 22 bd 33 ab c3 3c 03 1a 71 bd
       -0.015315424 -0.0396142 0.023885345 -0.058862697

net.9.weight f4 [256, 128, 5]
000000 ab b7 50 3d 2e 85 9d bd 3f 42 05 3d 9c e2 04 3e
       0.05095641 -0.07691418 0.03253388 0.1297707
000010 33 cc 03 3d b0 1e b9 bc 25 89 f7 3c 5b 64 76 bc
       0.03217716 -0.02259764 0.030216763 -0.015038575
000020 a7 75 05 3b f4 44 78 bc b3 f4 a7 bc 6c 75 75 bc
       0.0020364316 -0.015153158 -0.020502424 -0.014981609
000030 cd 4b d1 bc 7d 91 c6 bc 9f 01 fb bc c9 35 5d 3d
       -0.02554884 -0.024239296 -0.030640421 0.05400637
000040 61 3b 95 bd b4 3f e1 3c 46 cc 05 3e 5f a4 7e 3c
       -0.07286716 0.027496196 0.13066205 0.015542119
000050 ff 65 c3 bd fd 10 c0 bd 5b 42 44 3b de 07 f1 bd
       -0.095409386 -0.0937824 0.0029946778 -0.11769079
000060 6b dc 91 bd 52 6a 54 3d c7 be de 3c 76 fd cd 3c
       -0.071221195 0.051859207 0.02719058 0.025145274
000070 1e 0c 8a 3d 2f c4 1b 3d 73 9b 05 3d 3d 1b ab 3c
       0.067405924 0.038028892 0.03261895 0.020887012
000080 02 92 f4 bb 0c d3 12 3d 83 2a 42 3d b7 0a 3d 3e
       -0.0074636946 0.0358458 0.047403824 0.18461119
000090 0b e0 d3 bd 40 38 27 3d be 42 ae 3d 4c b4 f0 3d
       -0.10345467 0.04082513 0.08508824 0.11753139
0000a0 2b c7 24 3b bc 33 cf bc 6b 88 7e bc 10 52 8b 3c
       0.0025143127 -0.025293224 -0.015535454 0.017006904
0000b0 56 e9 27 bb c7 d4 72 3c 74 a9 52 bd bc 47 43 bd
       -0.0025621257 0.014821238 -0.051431134 -0.047675833
0000c0 7a 70 c1 bb 7e 5a 84 3c 01 95 a0 bb 89 8c bc bc
       -0.005903301 0.016156431 -0.004900575 -0.023016231
0000d0 80 39 72 bd 6c 43 04 3d 37 68 ed 3c 79 05 6f bb
       -0.059136868 0.03229086 0.028980358 -0.0036471768
0000e0 20 58 77 3b 85 3f 09 bd 8c 9b 69 bc 4c 36 cd bc
       0.0037741736 -0.033507843 -0.014258277 -0.025050305
0000f0 50 0d 7b bd fd ea 18 be f2 0d df bd 2b 53 93 bd
       -0.061291993 -0.14933391 -0.10891332 -0.071935974
000100 90 9b d2 bd bd 11 9b 3c a2 f5 62 3b aa 9f 69 3b
       -0.102835774 0.018929357 0.0034631272 0.0035648146
000110 24 70 f8 3c 9a 33 4e bc 12 4b 0e 3d f6 3f dc 3b
       0.03032691 -0.012585545 0.03473956 0.006721492
000120 21 a8 a6 3c 54 b7 93 3c a6 72 a1 bb 80 6a 1b 3d
       0.020343842 0.018031754 -0.0049269972 0.037943363
000130 e0 e9 ee 3a 3b c0 4c bc 49 a3 f4 3c f1 76 a1 3c
       0.0018227659 -0.012497003 0.029863017 0.019710036
000140 cf 15 a2 3d 87 6c d1 3d 98 4e 7d 3d dc c5 1e bc
       0.07914316 0.10225778 0.06184253 -0.009690728
000150 60 e6 2a 3c 52 01 87 bc 7f 5b 9a bd be e7 35 bd
       0.010430902 -0.016480122 -0.07536983 -0.04441046
000160 15 8e ff bc 95 14 81 3c dc 28 6c 3b 6e f0 0d bd
       -0.03119568 0.015756885 0.0036035096 -0.03465312
000170 04 fd a4 3c be 9e 8f bc 5c be 5f 3c 7c cd b8 bc
       0.020140179 -0.017531749 0.013656225 -0.02255892
000180 39 09 8a bd 8a b6 41 ba 19 57 1e bd 40 5c e8 bc
       -0.0674004 -0.0007389566 -0.03865728 -0.0283643
000190 89 5d 1d 3c 5c 31 9b bb 45 cf 5e bb dd 18 35 3d
       0.00960482 -0.0047361087 -0.0033998054 0.044213165
0001a0 e6 16 1d 3d 32 fb bd 3d 3c 95 d0 3d 3b 20 dd 3d
       0.038351916 0.09276427 0.10184714 0.10797163
0001b0 a5 93 b3 3d 2c 6f d2 3d c0 a3 3a 3c a1 8e 70 3c
       0.08768395 0.102751106 0.01139158 0.014682443
0001c0 eb 34 2d bd 10 92 d1 3c f2 a5 ce 3b a7 2d 8f 3c
       -0.042286795 0.025582343 0.0063064033 0.017477823
0001d0 57 ce c3 3c 97 c5 4c bb 02 9e bb 3b 9c 2d 3d 3c
       0.023902101 -0.0031245702 0.005725623 0.011546519
0001e0 c7 5f 2a 3d 7f d1 75 bd 3b 10 40 bc 5b 96 bd 3c
       0.041595247 -0.060014244 -0.01172262 0.023142984
0001f0 55 e8 93 bd 89 82 2c 3d b5 03 f2 3c 14 50 68 bc
       -0.07222048 0.042116676 0.029542783 -0.014179248
000200 4d 90 f4 3b 46 cf 1b 3d 12 05 02 3d 6d ec 05 3c
       0.007463491 0.03803947 0.031743117 0.008174044
000210 96 ea 0a bc 69 13 03 3b fc 63 3e 3d 4f 7a f6 3d
       -0.008478781 0.0020000583 0.04648207 0.12035047
000220 fc 9a bd 3d 40 41 61 3d 9d e6 5d 3d 0c 76 3f 3d
       0.092580765 0.054993868 0.054175008 0.046743438
000230 32 21 db 3d 65 d0 eb bd 12 e3 48 3d f0 26 c9 3d
       0.10699691 -0.115143575 0.049044676 0.0982188
000240 bd 61 94 3d 2b 09 2d 3d d0 d9 4c bc 1a db 68 3d
       0.072452046 0.04224507 -0.012503102 0.056849577
000250 08 a7 50 3d 97 76 97 3c 86 90 e0 3b 44 7f 5c 3b
       0.050940543 0.018489165 0.006853166 0.0033645192
000260 5e 9a b4 bc 01 d2 e8 3c dd 9e 01 3d ba de 00 3e
       -0.022046264 0.02842045 0.031645644 0.12584963
000270 44 b7 15 be e6 83 ba bb f2 03 ca 3d 8f b2 00 3e
       -0.14620692 -0.005691993 0.09864034 0.12568115
000280 1e 25 ed 3c ec 46 de 3c cb 58 eb bb 96 d8 07 3d
       0.028948363 0.027133428 -0.007182216 0.033165537
000290 72 e2 20 bd f2 66 64 3d 02 3a f6 3d f4 ef 0d 3e
       -0.039278455 0.05576224 0.12022783 0.13861066
0002a0 a9 b3 a1 3d 26 c5 89 3d 82 df 4b bc 6f 39 f4 3c
       0.078955956 0.06727056 -0.012443425 0.029812543
0002b0 d3 e7 04 bd dc ff d2 bb e3 b9 59 3d de 21 fb 3b
       -0.032447647 -0.006439192 0.05315579 0.0076639494
0002c0 f5 6d 2c 3c e2 2f c2 3b 88 0b 36 3c e0 6b fc bc
       0.010524263 0.005926118 0.011111148 -0.030813158
0002d0 bd 2c 0a 3d 86 15 2e bc 4b be 05 3d 5e e6 a0 3d
       0.033734072 -0.010625249 0.03265218 0.07856439
0002e0 91 60 12 bc a9 5a fb 3c 0c 11 87 bd f8 c4 45 bd
       -0.008934156 0.030682879 -0.06595048 -0.048283547
0002f0 b3 bd 97 bc 47 cf f3 3c 00 c6 d9 bc b7 54 32 bd
       -0.018523073 0.029761923 -0.026583672 -0.04353782
000300 5e 75 f4 bc 5e bd a9 bb 3c 13 35 3b 29 1d 44 3d
       -0.029841121 -0.005180045 0.0027629873 0.04787937
000310 a0 2c 8f 3c 27 7c 19 3c f6 79 c2 39 2a c7 43 3d
       0.017477334 0.009367979 0.00037093431 0.04779736
000320 ab b3 90 3d 20 48 59 3d b2 6f 93 3d a4 25 64 3d
       0.07065519 0.0530473 0.071990386 0.05569996
000330 7e 2d 6b 3d 33 9f be 3c 84 dc 10 bd aa 81 1d bd
       0.05741643 0.023269271 -0.03536655 -0.038453735
000340 18 23 65 ba 54 24 e8 bb 97 68 c4 3d 54 80 90 3d
       -0.0008740886 -0.007084409 0.095902614 0.07055727
000350 7c 39 65 3d ca ac 54 3d 15 61 cc 3c 14 af 69 3c
       0.055963024 0.051922597 0.024948636 0.014262933
000360 db 45 21 bc a1 0b 0a bc ed 15 30 3d 6f 53 f8 3b
       -0.009843315 -0.008425624 0.04298966 0.0075783054
000370 1f e8 34 3d 70 3d 57 3c f0 0d 19 3c 56 f6 8c 3d
       0.04416668 0.013137206 0.009341702 0.06882922
000380 1a c3 97 3d 5e 00 0e bd 1d d0 05 bc f8 e3 eb bb
       0.074102595 -0.03466832 -0.008167294 -0.007198807
000390 b9 eb 8f 3b 11 0e 31 3d 56 35 18 bb 64 73 9f bb
       0.004392114 0.043226305 -0.002322515 -0.0048660506
0003a0 b6 e9 c3 3c 84 57 33 ba ed af 96 3c 6b f2 a0 3c
       0.023915153 -0.0006841349 0.018394435 0.019646844
0003b0 a3 d5 01 bb db a1 ca ba 28 ff 44 3d 70 b1 e3 3c
       -0.0019811175 -0.0015459614 0.0480949 0.02779457
0003c0 9b 14 c3 bc 9b 78 fe bb cb 78 27 3a 5a dc 9a bc
       -0.023813536 -0.007765842 0.0006388544 -0.0189039
0003d0 21 08 d5 bc fc 7a 73 3d d6 ff b2 3d 3b 09 93 3d
       -0.026004853 0.05944346 0.08740203 0.07179495
0003e0 8f 2d 6d 3d 25 7a 3a 3d 64 80 bf 3d da 47 cc 3d
       0.057904776 0.045526642 0.093506604 0.09974642
0003f0 0d 13 c8 3b f4 bb 0c 3d c6 0a 99 3d 4a e6 a7 3d
       0.0061057867 0.034358934 0.07472758 0.08198221

net.9.bias f4 [256]
000000 b7 04 d5 bb f2 72 ff bb 8d 43 09 bc 60 87 2a 3d
       -0.006500806 -0.007795685 -0.008377922 0.04163301
000010 6d fb c7 3c f0 03 43 3d 9e 94 f2 bb 01 de 46 bc
       0.024411881 0.047611177 -0.0074029705 -0.012137891
000020 c4 83 d1 3c 32 a3 c6 3c 93 57 ec bc 90 85 ad 3c
       0.025575526 0.02424774 -0.028850352 0.021181852
000030 2a b3 6b 3d 75 b2 aa 3c 50 38 8c bc d9 6c 23 bd
       0.05754391 0.020837048 -0.017116696 -0.039898727
000040 6b f8 59 3c b9 78 98 bc 67 ac aa 3c d9 f5 51 bd
       0.013303856 -0.018612253 0.020834161 -0.05125985
000050 bd 5e 8e 3c 14 5c 8b bd 67 9a 30 3d b1 1a 21 bd
       0.01737916 -0.06804672 0.043116 -0.039332096
000060 31 92 b7 3c 7e 31 17 3c e2 db 2a 3d 8a e9 c5 3c
       0.022408577 0.009228108 0.041713603 0.024159212
000070 3a fc de bc a7 b6 e0 3c 04 2a 1f 3d 39 ff 14 3c
       -0.02721988 0.027430845 0.03885843 0.009094053
000080 98 85 24 3d a5 6f 98 3c d3 0e 5e 3d 5b 0c b7 3c
       0.040166467 0.018607924 0.054213356 0.022344759
000090 26 6f 3b bd 1d 29 48 3d 7f 0d 8c 3c db 57 d4 bc
       -0.045760296 0.048867334 0.01709628 -0.025920799
0000a0 02 c2 0e 3d d9 a1 6c bd 95 c1 07 3d 43 25 44 3c
       0.03485299 -0.057771537 0.0331436 0.0119717745
0000b0 77 6e b8 3b de ef 79 3b 94 a1 15 3d 68 31 95 3b
       0.005628403 0.0038137357 0.036531046 0.004553009
0000c0 c3 70 5d bd 31 f7 1b bd ab 66 1b 3c b4 9e e2 bb
       -0.054062616 -0.038077537 0.009484927 -0.0069158915
0000d0 65 2f 9c 3c b1 0e 12 3d 91 c9 3b bd 99 2e 13 bd
       0.019065568 0.035658542 -0.045846526 -0.03593311
0000e0 80 27 33 bd 05 80 29 3d 8a 2b 44 39 30 35 85 3c
       -0.043738842 0.041381855 0.00018708236 0.016260713
0000f0 13 2f 08 bd 0e aa f7 3b 9a 8c 05 bd 8c 9b 99 3c
       -0.03324802 0.007558114 -0.03260479 0.018750928
000100 ac ed 20 bd 59 27 20 bb 68 60 88 3c 1b e4 72 bd
       -0.03928916 -0.0024437516 0.016647533 -0.05929957
000110 44 d2 27 bc 89 08 02 bd a9 5f 09 bd 1f 49 b8 3c
       -0.010243002 -0.03174642 -0.033538494 0.022495804
000120 a3 94 9a 3b f7 6d 4d 3b cb c7 1f bd a5 d4 cb bc
       0.004717426 0.0031346062 -0.039008897 -0.02488167
000130 93 5e 9b bc f9 b3 83 bd 44 5e 06 3d 0a fb 7d bb
       -0.018965995 -0.064308114 0.032804742 -0.0038754367
000140 84 61 08 3d 29 e9 8f 3c 5a 32 3e bd c4 26 df 3b
       0.033296123 0.017567234 -0.046434738 0.006810041
000150 15 7e 23 3d 92 c8 d9 3c 10 3e d1 bc fc 08 1e 3d
       0.039915163 0.026584897 -0.025542289 0.038582787
000160 57 44 54 3a 9c db 42 bb 16 1a 1e bd a5 57 42 3d
       0.00080973416 -0.0029732948 -0.038599096 0.047446866
000170 18 ff 77 3c 42 3f 9b bd 45 84 fe bc 19 4f dc 3c
       0.015136503 -0.07580425 -0.03106893 0.026893185
000180 94 72 9f bd e9 d8 9e bd bd fb 50 3c 20 ef 57 ba
       -0.07785526 -0.07756216 0.012755332 -0.00082372315
000190 c6 fe f5 3c 0b e4 3c 3b 36 f4 a3 3c 6a 26 eb 3b
       0.030028712 0.0028822448 0.02001391 0.00717621
0001a0 b0 f5 8b 3c 35 62 8f bc d6 ef 95 3c ca fc 7f 3b
       0.017084926 -0.017502883 0.01830284 0.0039060586
0001b0 75 ab 23 3d 7c d3 cb 3c 11 68 60 3d 8d a1 da 3c
       0.039958436 0.024881117 0.054786745 0.026688362
0001c0 62 47 68 3d b4 7f bc 3c 61 5a 1a bc ef d6 cf 3c
       0.0567087 0.023010112 -0.009420962 0.025371043
0001d0 74 71 08 bc b0 3c 51 3c 42 50 03 3c 1d b4 b2 3c
       -0.008327831 0.012770817 0.00801474 0.0218144
0001e0 64 d6 30 3d 54 92 9a bd dc 32 87 bd a8 e5 38 3c
       0.04317321 -0.07547441 -0.066014975 0.011285223
0001f0 58 ec 6a 3d 11 d3 1c bd 2f b1 f4 ba 45 67 16 3d
       0.0573543 -0.038287226 -0.0018668527 0.03671958
000200 86 2a f5 3c 7e a4 91 bc 01 6d 1e 3d e8 af 87 bc
       0.029927503 -0.017778631 0.038678173 -0.01656337
000210 ab e9 06 bd 22 54 1f 3d 1b af 5e bd 7f 2f eb 3c
       -0.032937687 0.038898595 -0.054366212 0.028709171
000220 36 88 ff bc 27 6f d8 3c d4 55 ca 3c a7 d9 c6 3c
       -0.03119288 0.026420189 0.02469913 0.024273707
000230 83 ff 23 3d f8 98 44 3d 95 f5 54 3a 82 48 be 3c
       0.040038597 0.047997445 0.0008123753 0.023227934
000240 bd fb 89 3c 5d d9 dd ba bc d5 39 3d 97 08 45 bc
       0.016843671 -0.0016925741 0.04536985 -0.012025974
000250 ee 0e 6b 3c 33 de bd bc da f5 89 bd 53 95 6a bd
       0.014346821 -0.023177242 -0.067363456 -0.057271313
000260 0c a9 94 3c 6f 2c 42 3d 73 c0 9c bc 70 63 12 3c
       0.018147014 0.047405656 -0.019134736 0.008934841
000270 6e 2d 02 3d b4 bd b0 3c 6e cb 03 bb 3f a8 61 3c
       0.031781606 0.021574832 -0.0020110267 0.013773023
000280 52 6d 27 3b 32 8e 46 3b 39 44 fa 3c db ff 13 bb
       0.0025547338 0.0030297157 0.03055011 -0.0022582922
000290 1d 00 b1 bc fd 58 60 bb 4e a2 2f bd ad df 2d bd
       -0.0216065 -0.0034232729 -0.042879395 -0.042449642
0002a0 19 5e 9f 3c 0a 99 c9 3c 03 8b 80 3a b7 b4 49 3c
       0.019454049 0.024609108 0.0009807054 0.012311152
0002b0 51 2f 71 3d d3 52 0d bd 9b c4 c4 bc 13 86 c7 3b
       0.058883015 -0.034502815 -0.02401953 0.006088981
0002c0 24 d9 63 3a 3b 6d f7 3b 27 76 86 bd 4d 3a 71 bc
       0.0008691719 0.007550863 -0.065655045 -0.014723373
0002d0 74 37 4c 3c bc 1c 19 bc 76 fd 8e bb 46 e9 fc bc
       0.012464393 -0.00934523 -0.004363711 -0.030872952
0002e0 d5 a7 03 3d 69 67 98 3c 31 a2 66 3d 68 94 9c 3c
       0.03214248 0.018603997 0.05630702 0.019113734
0002f0 a2 3d 03 3d 42 c3 35 3d 00 62 2d bd af 5c 4b 3d
       0.0320412 0.044375665 -0.04232979 0.049648937
000300 6f c0 24 bd 64 11 ea bc 54 2a 57 3d 39 03 b7 3a
       -0.04022258 -0.028572746 0.0525306 0.0013962752
000310 39 9a 43 3c e2 f1 57 bd ee c6 9d 3b c5 59 2e 3d
       0.011938625 -0.05272091 0.004814974 0.04256608
000320 48 e9 32 3c 43 6d 2d 3c 32 57 10 3d df c0 30 bd
       0.010919876 0.010585132 0.035239406 -0.043152686
000330 1b 25 4f bd ef 08 34 3d cd 56 8a bd 93 c1 c0 3b
       -0.050572496 0.043953832 -0.06754837 0.005882451
000340 5b ee ab 3b 6a 46 fa 3c 50 6d b2 3c 61 ad e0 bc
       0.00524692 0.030551154 0.02178064 -0.027426424
000350 4a 02 a7 bc f7 7c 31 3c 34 d0 57 3b 31 2c 53 3d
       -0.020386834 0.010833017 0.0032930495 0.051555816
000360 77 17 64 3c 8f 38 5b 3d 59 40 02 3d 51 a5 23 bc
       0.01392161 0.053520735 0.031799648 -0.009988145
000370 b3 ff ad bd 3d ab 83 3d 0d c9 71 3d 4f 05 5b bb
       -0.084960364 0.064291455 0.059029628 -0.0033419912
000380 31 ca 5b bc 86 5b a9 bc ce 74 65 bd 76 b4 13 bd
       -0.013414905 -0.020673525 -0.056019597 -0.036060773
000390 23 bc 31 bd 8a 95 3c bb a3 e5 11 3d 56 8d 74 3c
       -0.04339231 -0.0028775656 0.03561939 0.014926275
0003a0 96 ba 63 3c fe fb 17 bd 44 d1 08 bc ce c8 0a bc
       0.013899466 -0.037105553 -0.008350674 -0.008470727
0003b0 f5 b0 9a bc d8 98 8d bb 7d 2f 04 3b c7 5b 14 3d
       -0.018883208 -0.004321199 0.0020169907 0.03622034
0003c0 36 91 13 b9 45 8c d4 3c 78 40 b2 bb 9d 33 08 3d
       -0.00014073108 0.025945792 -0.005439814 0.033252347
0003d0 b5 ef 92 bc 93 16 da 3c a8 4b df 3c c0 65 24 3d
       -0.017936567 0.026622092 0.027257755 0.0401361
0003e0 fe a7 55 bd 6c 70 4b ba cb c4 39 bd 7a 2e 0e 3c
       -0.052162163 -0.00077605876 -0.045353692 0.008678073
0003f0 b7 d0 27 3d b1 81 56 bb 80 f3 41 3d b7 62 a2 bc
       0.04097053 -0.003273111 0.04735136 -0.019822462

fc.weight f4 [2, 256]
000000 ae 91 3e bd 2c 1a 3a bd 87 61 73 3b 62 4a 39 bd
       -0.04652565 -0.045435116 0.0037136988 -0.045236953
000010 37 a6 93 3c 43 24 50 bc 22 aa 70 3c a9 5f de bc
       0.018023593 -0.012703958 0.014689 -0.027145224
000020 2f c2 c8 3c b0 1c 9d 3d 27 27 76 bd db c3 7c bd
       0.024506656 0.07671487 -0.060095932 -0.06171022
000030 73 c8 7b bc 7a 3c e6 bc 26 78 59 bd c8 b4 82 bc
       -0.015367615 -0.02810501 -0.053093098 -0.015955344
000040 2c a7 be bd 92 1d 56 bd 8f 1b c5 3d 30 cd 16 be
       -0.09309229 -0.052274294 0.09624397 -0.1472671
000050 19 1e 72 bd fc 62 d5 bd 3a e8 90 bd 2c 26 2d be
       -0.059110735 -0.104192704 -0.07075544 -0.16909093
000060 47 99 a3 3d 0e 60 56 3d 5a ca 34 bd ca 5f dd 3d
       0.0798822 0.0523377 -0.04413829 0.10809286
000070 82 61 a9 3c 87 4b 96 3d 3b ed 37 3e 5e bc 0a 3e
       0.020676378 0.073386244 0.1796159 0.13548419
000080 38 d2 93 bd 93 f6 01 3d ca a3 9d bd 83 b6 5f bd
       -0.072178304 0.031729292 -0.07697256 -0.054617416
000090 21 15 1d 3c ae 50 03 bd 2c 25 c7 3d 9c bf 1d bd
       0.009587557 -0.032059364 0.09723887 -0.03851281
0000a0 c9 2d 86 bd 6e 5e 13 be 1b dc bb bd c1 24 f1 3d
       -0.065517016 -0.14391491 -0.09172841 0.117745884
0000b0 3d 48 d3 3d b7 89 0a 3b f9 5a 9c 3d 23 0f ec 3d
       0.10316513 0.0021139213 0.07634539 0.115263246
0000c0 34 ef ee ba 1b d6 d7 bc 65 74 b1 3d b6 f8 dc 3d
       -0.0018229247 -0.02634721 0.086647786 0.10789625
0000d0 ef a9 99 bd 82 2c 73 bb 39 86 d6 bb 41 5d 86 3c
       -0.075031154 -0.0037105386 -0.0065467623 0.016401889
0000e0 04 03 5b bc 2f ee 3b bd 5f 18 ff 3d 99 94 09 3d
       -0.013367418 -0.045881446 0.1245582 0.03358898
0000f0 3c 9b fa 3b 26 ac 3b bd b5 e7 4d 3d ce 98 91 3b
       0.0076479 -0.04581847 0.0502698 0.0044432646
000100 5a 48 a9 3c f0 11 77 3d 7d c8 a8 3c 4f f2 0e 3d
       0.020664383 0.06031984 0.020603413 0.034899052
000110 2a e6 15 be e0 fa 32 bd 7d 9f 71 bd 63 d4 ac 3d
       -0.14638582 -0.043696284 -0.05898999 0.08438947
000120 cd fb e4 3d cc 62 f1 bc 24 96 fd 3c 43 94 84 bc
       0.1118084 -0.029466055 0.030955382 -0.016183978
000130 78 d8 74 bd e8 0a 9b bc 97 56 97 bd 40 7c b0 bc
       -0.059776753 -0.018926099 -0.073895626 -0.021543622
000140 15 c8 9d bd 92 e9 8a bc a3 33 90 3c 8d c8 b7 3d
       -0.07704178 -0.016957078 0.017602747 0.08973799
000150 3b b3 cb 3d b7 8c 80 bd d9 5f 19 3d 99 e6 2c bd
       0.09946295 -0.06276839 0.037444923 -0.042212103
000160 bc 98 ff 3d 1b 44 e3 3d f4 9b 1c bd 76 5b 61 bd
       0.12480304 0.110969745 -0.038234666 -0.055018865
000170 11 65 8d bc f6 83 84 be a6 51 55 3c ce a9 f8 3b
       -0.017260106 -0.25881928 0.013019955 0.0075886017
000180 d5 a5 25 be 5a d9 26 be 52 56 ab 3c 5b f2 94 3d
       -0.16176541 -0.1629385 0.020915184 0.07272788
000190 45 b0 6b bd dc 4c 75 3c 69 07 e1 3d 9f 38 98 3d
       -0.05754115 0.014971938 0.109877415 0.074326746
0001a0 04 11 23 3e ca 65 af 3c 07 1b 84 bc 52 c3 bb 3d
       0.1592446 0.021410841 -0.016126169 0.09168114
0001b0 3c 7f fd bc 83 71 88 bc 30 71 1b bd e3 29 91 3d
       -0.03094446 -0.01665569 -0.03794974 0.070880674
0001c0 3b 95 50 bd b2 79 4e 3e 51 b5 b3 bc 14 0c b8 3d
       -0.050923567 0.2016361 -0.021937044 0.08986679
0001d0 0c 79 d9 3c 4a 10 0a 3d 16 36 65 3e b7 ef 5c bd
       0.026546977 0.03370694 0.22383913 -0.053939547
0001e0 e0 55 8f bc 7b 46 2f be 1e bd cc bc e6 8c 14 3e
       -0.017497003 -0.1711673 -0.024992522 0.14506873
0001f0 63 0a 53 bd 94 88 45 bd f2 3e 9e bd d6 0a c6 3d
       -0.051523577 -0.048225954 -0.077268496 0.096700355
000200 2b a8 ae bd 00 21 02 be a2 2a 1d bd 6e 71 ff 3c
       -0.08528169 -0.12707901 -0.038370736 0.031182017
000210 67 b0 16 be 38 a2 b2 bd 37 14 32 be 2e f7 c8 bd
       -0.1471573 -0.08722347 -0.17390524 -0.09812771
000220 6c c2 4a be db 60 a1 bd d0 94 29 bb f9 0c 71 3e
       -0.19800729 -0.07879802 -0.0025876053 0.23540105
000230 9b 01 75 bd d0 ed af bc b5 84 a7 3d ad 9d 7f bd
       -0.059815984 -0.021475703 0.08179609 -0.06240623
000240 55 22 a8 bd 59 00 0d be f4 30 ff bc 9b 15 ee bd
       -0.08209673 -0.13769664 -0.031151272 -0.11625215
000250 0b 48 d3 3d c1 65 e9 bc 22 c9 7c be 5f 30 b6 bd
       0.103164755 -0.028490903 -0.24686101 -0.08895945
000260 76 81 42 3e bb 02 94 bd 0e c6 82 3c f1 ae 90 3d
       0.18994698 -0.07227083 0.01596358 0.070646174
000270 74 1f 8c bd 79 ae 9e bb 9a d1 1c 3d 90 8e f3 3d
       -0.06841937 -0.004842576 0.03828583 0.11892426
000280 67 b9 13 3d 5d df 91 3d c0 17 cc bc 3e b2 89 3d
       0.036065485 0.07122681 -0.024913669 0.0672345
000290 5d 24 ca bc 1b 96 16 3e 2c 88 0c be c8 8a d8 ba
       -0.024675542 0.14705698 -0.1372382 -0.0016520852
0002a0 ed 6c 31 bd d4 da 29 bd 5b 26 bb 3d 48 62 8e 3b
       -0.04331677 -0.041468456 0.09138175 0.004345212
0002b0 ac a9 b4 bd ed 8f 49 be a0 da 2c 3e b2 38 da 3d
       -0.08821425 -0.1968381 0.16880274 0.10655345
0002c0 b3 41 78 3e 0c bb a7 bd d0 73 d8 bd e3 2f 3d 3c
       0.24243812 -0.08189973 -0.105689645 0.011547062
0002d0 2f a9 4d 3d 19 5e 91 3d aa 66 9f 3d 36 cc 97 bd
       0.050210174 0.07098026 0.077832535 -0.07411997
0002e0 29 31 05 3c e8 53 92 bd ae 28 74 bd 70 60 ef 3d
       0.0081293965 -0.0714491 -0.059609108 0.11688316
0002f0 73 ea b9 3d 05 bc 5e bd a6 d3 c7 3c 8d a5 ad bd
       0.09077921 -0.05437853 0.024392914 -0.08478842
000300 b2 aa 61 be de a7 ab bb 9f 1b 01 bd 90 a1 ed 3d
       -0.22037771 -0.005238517 -0.031520482 0.11603081
000310 c6 96 16 3d 71 1b e3 bd 2b e6 a4 3d 3f 8a b1 bd
       0.036764883 -0.110892184 0.080517136 -0.086689465
000320 98 99 17 bd 90 28 87 3d 1e 93 94 bc 96 2a 7c bd
       -0.037011713 0.065995336 -0.018136557 -0.06156405
000330 61 5c 00 ba 72 f3 40 bd 87 c6 48 be 1c 64 83 bd
       -0.0004896578 -0.047107168 -0.19606982 -0.06415579
000340 33 1a 16 3d 69 89 70 bd fa e7 8b 3d 71 a6 8c bc
       0.03664608 -0.058724795 0.068313554 -0.01716921
000350 21 0a ba bc b9 0c aa bd 76 35 a3 bd 2e 17 b3 bd
       -0.022709908 -0.08303208 -0.07969181 -0.087446555
000360 79 6c 7d bc 29 aa 4e bc 29 c1 b4 bd 88 ae bc 3c
       -0.015467756 -0.0126138115 -0.08825905 0.023032442
000370 55 12 69 be cd 91 09 bd 62 9f 8d bd 49 62 ee 3d
       -0.227609 -0.033586312 -0.069151655 0.1163984
000380 a8 a7 22 bd 1f 1f 78 bd f0 d8 c6 bd a6 1f 86 be
       -0.03971067 -0.060576554 -0.09709346 -0.2619602
000390 77 c2 61 3d 84 43 d8 bc 2d 63 fb bc 6a 79 37 bd
       0.055117097 -0.026399381 -0.03068694 -0.044793524
0003a0 09 d5 b5 3d 58 e8 c3 3c 3b d3 ad bd 66 00 a7 3c
       0.08878524 0.023914501 -0.08487555 0.020385932
0003b0 14 34 a7 bd d9 0b b6 bd 5e 47 e0 3c 94 ce c3 3d
       -0.0816423 -0.088889785 0.02737778 0.09560886
0003c0 03 b6 5a 3d 90 9a 62 bd 14 7d 3a bd 12 c5 bf bc
       0.053396236 -0.055323184 -0.04552944 -0.0234094
0003d0 67 d8 65 3e 66 59 6f 3d 3a 6e 65 bc 2a 2c b2 bd
       0.22445832 0.058434866 -0.014003331 -0.0869983
0003e0 e4 3e d3 bd 23 f0 f7 3d fd 9e 76 bd 26 49 9f 3d
       -0.1031473 0.12106349 -0.060210217 0.07777624
0003f0 73 44 40 bd 8e b9 56 3d 58 49 eb bc 76 58 81 3d
       -0.04694028 0.052423052 -0.028721496 0.06315701

fc.bias f4 [2]
000000 e6 b9 45 bd f6 91 6b 3d
       -0.04827299 0.057512246
