backend/ml_models/audio_model.pth (torch, 878462 bytes, 10 tensors)

net.0.weight f4 [32, 1, 80]
0	0x3cf74593	0.030184543
1	0xbd463421	-0.048389558
2	0xbd909ab8	-0.0706076
3	0x3db0909e	0.086213335
4	0x3dcb0450	0.09912932
5	0x3d9a0064	0.07519606
6	0xbdee4405	-0.116340674
7	0xbd14e649	-0.03635243
8	0x3ce38827	0.027774883
9	0xbd92da1f	-0.071705095
10	0xbdd8aed9	-0.105802245
11	0x3bc42ee6	0.005987036
12	0x3cea62fd	0.028611654
13	0xbd65d389	-0.05610994
14	0x3dfb9686	0.122845694
15	0x3af5263f	0.0018703415
16	0xbda804c9	-0.08204038
17	0x3d835f54	0.06414667
18	0xbcec9044	-0.028877385
19	0x3dd24724	0.10267475
20	0xbda33e2e	-0.07970844
21	0xbd671650	-0.056417763
22	0x3c0b7736	0.008512309
23	0x3dd2eb01	0.1029873
24	0xbd8d3b67	-0.06896096
25	0x3dbe906b	0.09304889
26	0xbbb07adc	-0.0053857397
27	0xbb91c384	-0.004448356
28	0xbdaf63aa	-0.08563931
29	0xbd5230e4	-0.051316157
30	0xbbbaaa5c	-0.005696578
31	0x3d8cd677	0.068768434
32	0xbad03d2f	-0.0015887375
33	0xbda19608	-0.07889944
34	0xbe01e64b	-0.12685506
35	0xb9801d12	-0.00024435722
36	0x3d55be3f	0.052183386
37	0x3d8bd8c7	0.06828456
38	0x3d847485	0.06467537
39	0xbdb361b9	-0.087588735
40	0xbdd01182	-0.10159589
41	0xbda347a6	-0.0797265
42	0x3de1c11b	0.1102316
43	0x3de84cfb	0.11342808
44	0x3ddb7201	0.10715104
45	0xbcd81819	-0.026378678
46	0x3d8cb49e	0.068703875
47	0xbbd52f44	-0.0065058786
48	0xbd0169a1	-0.031594876
49	0x3b8e7201	0.0043470864
50	0x3c4c64e5	0.012475227
51	0x3d0106f5	0.031500775
52	0xbd2a7a75	-0.04162069
53	0xbc675456	-0.014119228
54	0x3d0074ba	0.03136132
55	0xbde5469e	-0.1119511
56	0x3d4bf336	0.04979249
57	0xbdd61474	-0.1045312
58	0xbdee4140	-0.11633539
59	0x3c411c64	0.011786554
60	0xbd576838	-0.052589625
61	0xbdeb7c9a	-0.11498375
62	0xbdaef62d	-0.08543048
63	0xbd43f284	-0.047838703
64	0x3b8b6f5a	0.0042552175
65	0x3dbefa8d	0.093251325
66	0xbd06e362	-0.032931693
67	0x3cc09021	0.023506226
68	0x3daae6e0	0.08344817
69	0x3d9cc076	0.076538965
70	0x3df23210	0.11825955
71	0x3d254841	0.04035211
72	0xbd63ad4c	-0.05558519
73	0x3d1a8d70	0.03773254
74	0xbc23cb7c	-0.009997245
75	0x3b3706de	0.0027927677
76	0xbd795714	-0.06087406
77	0x3d0a9ee3	0.033842932
78	0xbdd5614f	-0.10418951
79	0xbdb510d1	-0.08841098
80	0x3d2069ef	0.039163526
81	0x3d1baa67	0.038004305
82	0xbd8f9c1c	-0.070121974
83	0xbdf22cd0	-0.118249536
84	0xbd9d97fb	-0.076950036
85	0x3d817ab7	0.06322234
86	0xbda5a9d5	-0.080890335
87	0x3da1bc73	0.07897272
88	0xbdb825d3	-0.089915894
89	0xbd37112d	-0.044694114
90	0x3d139231	0.03602809
91	0x3b3468ad	0.0027528212
92	0x3d9fca95	0.07802311
93	0x3dbde9d3	0.09273114
94	0xbcd1f6fd	-0.025630469
95	0x3d6ac68c	0.057318255
96	0x3ce02b24	0.027364321
97	0xbc231dd1	-0.009955839
98	0xbdf87822	-0.121322885
99	0x3c1bd8d8	0.009512149
100	0xbcedd1bd	-0.029030675
101	0xbd8627dd	-0.06550572
102	0xbd80d635	-0.06290857
103	0x3cbb0520	0.022829592
104	0xbc063f0c	-0.0081937425
105	0xbd8290a3	-0.063752435
106	0x3dce1e46	0.10064368
107	0xbc159b17	-0.009131215
108	0x3d4af8c6	0.049553655
109	0x3dc02f54	0.09384027
110	0xbd5c0986	-0.05372002
111	0xbdc1cb8a	-0.0946265
112	0xbca73104	-0.020409115
113	0x3c433e84	0.01191676
114	0xbdc5b51e	-0.09653686
115	0xbd5e0bd0	-0.054210484
116	0x3d87c7d7	0.06629913
117	0xbda30158	-0.07959241
118	0x3d363d78	0.044492215
119	0x3c4c5765	0.012472008
120	0x3d7acc62	0.06123007
121	0xbdcd2e11	-0.10018552
122	0xbd87a3f4	-0.066230685
123	0xbda4d3f3	-0.080482386
124	0xbd3fd2e3	-0.046831977
125	0x3da5e57a	0.0810041
126	0x3d0117d0	0.03151685
127	0x3d0c95de	0.034322612
128	0x3d9432c0	0.07236242
129	0x3dded990	0.108813405
130	0xbb4dc2c7	-0.0031396614
131	0x3dde3e36	0.108517095
132	0xbd6a1094	-0.057144716
133	0xbdb2d063	-0.08731153
134	0xbbd0b49b	-0.006369186
135	0x3cfe56ac	0.031047188
136	0xbd4af2df	-0.049548026
137	0xbd819c09	-0.063285895
138	0xbc45790c	-0.012052786
139	0xbc9ff161	-0.019524278
140	0x3d66c052	0.056335755
141	0x3d9ca283	0.07648184
142	0x3d53f328	0.051745564
143	0xbdbad681	-0.091229446
144	0x3beb0d24	0.0071731973
145	0xbd27540d	-0.04085164
146	0xbd6a402d	-0.05719011
147	0x3d308b04	0.043101326
148	0xbd62ca0d	-0.055368472
149	0xbda30d73	-0.079615496
150	0x3c9ae938	0.018910035
151	0x3d81039f	0.06299519
152	0x3cf698e7	0.030102206
153	0xbd962d2d	-0.07332835
154	0x3ce34cd3	0.027746594
155	0x3dde31b5	0.108493246
156	0x3e025581	0.1272793
157	0x3c2cb8c3	0.0105420975
158	0xbd030405	-0.031986255
159	0x3dd9097d	0.10597513
160	0xbc612e67	-0.013743973
161	0xbca8853b	-0.020571342
162	0x3d1fc379	0.039004777
163	0xbab354e8	-0.001368192
164	0x3d55f408	0.05223468
165	0x3dddec91	0.10836137
166	0xbd2436a0	-0.040091157
167	0xbcba59fd	-0.022747988
168	0x3daf6687	0.085644774
169	0xbd9ce673	-0.07661142
170	0x3da28369	0.07935221
171	0x3bf76db6	0.0075509204
172	0x3da0044d	0.0781332
173	0x3d97a468	0.07404405
174	0x3cf4972c	0.02985724
175	0x3d922794	0.07136455
176	0x3d8d3ba0	0.06896138
177	0xbd942b00	-0.07234764
178	0xbe066b36	-0.13126835
179	0xbdd6749c	-0.1047146
180	0xbe25a9cf	-0.16178058
181	0x3c2d17b4	0.010564733
182	0xbcb17347	-0.021661414
183	0xbd45b20e	-0.04826551
184	0xbd8744dc	-0.06604931
185	0xbd9c374f	-0.07627737
186	0x3c02d4a8	0.0079852715
187	0x3e10ceb9	0.14141358
188	0x3d3acc84	0.045605198
189	0x3de85afe	0.113454804
190	0x3da8e0a1	0.082459696
191	0x3c961473	0.018320298
192	0x3c8d3a87	0.017239822
193	0x3da13581	0.07871533
194	0xbacdbf06	-0.0015697188
195	0x3d9b48c1	0.07582236
196	0xbd11de33	-0.035612296
197	0xbd315c03	-0.04330064
198	0xbdecbb12	-0.11559118
199	0xbe1b522d	-0.15168066
200	0xbd0f4c05	-0.034984607
201	0x3bf712bf	0.0075400765
202	0x3b96d6ff	0.0046032663
203	0x3db9c2ce	0.09070359
204	0xbdd62659	-0.10456533
205	0xbdb32e06	-0.08749013
206	0xbd8e088b	-0.06935223
207	0x3dc0c559	0.09412641
208	0x3d902cba	0.07039781
209	0xbd1c2267	-0.038118746
210	0x3b3deedf	0.002898149
211	0x3db998b5	0.0906233
212	0xbc0df92b	-0.008665363
213	0xbbb843e6	-0.0056233285
214	0x3d01b99c	0.03167115
215	0xbc54ca3f	-0.012987672
216	0x3dac5e0b	0.08416375
217	0x3c20966d	0.009801489
218	0xbd4c4ca2	-0.04987777
219	0x3dfd601e	0.123718485
220	0x3e0290d1	0.12750556
221	0x3e17ed95	0.14836724
222	0xbd7822a0	-0.060579896
223	0x3dc845cc	0.09778938
224	0xbdb21317	-0.08695047
225	0x3d859028	0.06521636
226	0xbe12cfae	-0.14337036
227	0xbdf301d1	-0.11865581
228	0xbdaa8a16	-0.08327119
229	0xbe0c2b35	-0.13688357
230	0xbc11f4ac	-0.008908432
231	0xbdfa94e0	-0.12235427
232	0x3d90282e	0.07038914
233	0x3d9155c7	0.07096439
234	0x3b74a9ae	0.0037332582
235	0x3e0b868d	0.13625546
236	0x3da037d5	0.07823149
237	0x3d7aa872	0.0611958
238	0x3d308f7a	0.04310558
239	0x3d5cf608	0.05394557
240	0x3dc7ed3d	0.097620465
241	0xbdd82937	-0.10554736
242	0x3c5d1345	0.013493364
243	0xbd8f3122	-0.06991793
244	0x3d6e205e	0.058136337
245	0xbd0680cc	-0.032837674
246	0x3d9e00c3	0.07714989
247	0x3d8432fc	0.06455037
248	0x3de7367f	0.11289691
249	0x3dd99b18	0.10625285
250	0x3dbeb00d	0.09310923
251	0x3b4fddc1	0.003171787
252	0xbd3a8ac3	-0.04554249
253	0x3dceacc4	0.10091546
254	0x3db0cd6b	0.0863293
255	0x3e4218fc	0.18954843

net.0.bias f4 [32]
0	0x3c5c741e	0.013455419
1	0xbd4dc7e5	-0.050239462
2	0x3d2195d8	0.039449543
3	0xbdaf6c54	-0.08565584
4	0x3d8d6df2	0.06905736
5	0x3d0a21d9	0.033723686
6	0x3d2f4af1	0.04279608
7	0x3ca668a4	0.020313568
8	0xbc7a0e41	-0.015262187
9	0xbd562d6b	-0.052289408
10	0xbd3e97df	-0.046531554
11	0x3d8cc9f1	0.06874455
12	0xbbfddd3b	-0.00774732
13	0xbccd8917	-0.025089784
14	0xbd85562a	-0.06510575
15	0xbca75ef6	-0.020431023
16	0xbc9dfdb4	-0.019286014
17	0x3d870816	0.06593339
18	0xbe141201	-0.14459993
19	0xbddc3663	-0.10752561
20	0xbdbee9a1	-0.09321905
21	0xbd2383c3	-0.03992058
22	0x3d74fa70	0.05980915
23	0x3dc744e8	0.0972994
24	0xbe00bf4f	-0.12572978
25	0x3da01d45	0.07818083
26	0xbc5d4c7f	-0.013507008
27	0x3d8016ad	0.06254325
28	0xbbfed6f1	-0.007777088
29	0x3db79a7f	0.08965015
30	0xbcc17259	-0.023614096
31	0xbdb227f9	-0.086990304

net.3.weight f4 [64, 32, 5]
0	0x3d28b4c6	0.041188024
1	0x3d612165	0.054963488
2	0xbbf46e79	-0.0074594584
3	0x3ca69a61	0.020337285
4	0x3d116f01	0.035506252
5	0xbc5449cd	-0.012957049
6	0xbce0e617	-0.027453465
7	0xbd0c2bcc	-0.034221455
8	0x3d85dbac	0.0653604
9	0xba98cdcd	-0.0011658013
10	0xbdac2961	-0.0840633
11	0x3d44e38a	0.04806856
12	0xbae00d6c	-0.0017093844
13	0xbceaca48	-0.028660908
14	0xbd254afc	-0.040354714
15	0xbcf8c158	-0.030365631
16	0x3d242fcf	0.040084656
17	0x3c6c8181	0.014435173
18	0x3d159fa2	0.03652919
19	0x3ce78ce7	0.02826543
20	0x3d2e118f	0.042497214
21	0x3cc78439	0.02435504
22	0x3cbad081	0.0228045
23	0xbdc6648a	-0.09687145
24	0xbd8f2ef6	-0.06991379
25	0x3d81877d	0.063246705
26	0x3d9be784	0.076125175
27	0x3c9fd322	0.019509856
28	0x3c66206c	0.014045816
29	0x3cadd9f3	0.02122209
30	0x3db998e4	0.09062365
31	0xbca16f63	-0.019706434
32	0xbcf83284	-0.030297525
33	0xbb8069a4	-0.0039188433
34	0x3c1a45c1	0.009416045
35	0x3c761a87	0.015020973
36	0x3cafa6ec	0.0214419
37	0xbd19069f	-0.03735983
38	0xbbaac1ad	-0.0052110762
39	0xbd55bdc8	-0.052182943
40	0xbc98aa72	-0.018635962
41	0x3dbf7f79	0.09350485
42	0xbd50e1bb	-0.050996523
43	0x3d180bc5	0.0371206
44	0x3d360324	0.04443659
45	0xbcef8c90	-0.02924183
46	0xbb249dd1	-0.002511848
47	0x3c35e46b	0.011101822
48	0x3de3cd19	0.11123104
49	0x3c8799fa	0.016552914
50	0xba970afe	-0.0011523662
51	0x3ddb4d75	0.10708133
52	0x3db50899	0.088395305
53	0xbc57e640	-0.0131774545
54	0xbd0c5df6	-0.034269296
55	0xbdadaeaf	-0.08480584
56	0xbda1c990	-0.07899773
57	0x3c3b884b	0.011446069
58	0xbc32575d	-0.010885087
59	0x3bd25aab	0.0064195
60	0xbd64ba35	-0.055841643
61	0xbca883ca	-0.020570654
62	0x3d905a92	0.07048525
63	0xbc95c34c	-0.018281601
64	0x3cc287df	0.023746429
65	0xbca89a71	-0.020581456
66	0xbd07cb84	-0.033153072
67	0xbd0d308f	-0.034470137
68	0x3d771689	0.060324226
69	0x3d92b514	0.07163444
70	0xbc9d549d	-0.019205386
71	0xbd80eb5f	-0.062948935
72	0x3d2ae9fd	0.041727055
73	0xbca644a6	-0.020296406
74	0x3daa7d28	0.08324653
75	0xbcd39e17	-0.025832219
76	0x3d50de90	0.050993502
77	0x3d1865a9	0.037206326
78	0xbd18e3dc	-0.03732668
79	0xbd16b2f8	-0.03679177
80	0xbc4ac09d	-0.012375024
81	0xbda55e22	-0.08074595
82	0x3cc39854	0.023876347
83	0x3a910aff	0.0011065899
84	0xbd90fe7c	-0.07079789
85	0xbd507b8d	-0.050899077
86	0xbc8b8932	-0.017033193
87	0xbd86bb4b	-0.06578692
88	0x3d04b5d9	0.032399986
89	0xbca0a051	-0.019607695
90	0xbd505370	-0.050860822
91	0x3da8fcba	0.08251329
92	0x3b8d9c28	0.004321594
93	0xbd84affb	-0.06478878
94	0xbb69c58f	-0.0035670733
95	0x3da11af8	0.07866472
96	0x3d03612f	0.032075103
97	0x3cd61bab	0.02613624
98	0x3dd4bab2	0.10387172
99	0x3d7d2789	0.06180528
100	0xbb3a9ae8	-0.002847368
101	0x3df01662	0.11723019
102	0x3d972d81	0.07381726
103	0x3b8bd04f	0.0042667757
104	0xbd157883	-0.036491882
105	0xbd0a6e33	-0.0337965
106	0x3d460d01	0.048352245
107	0x3b5396e5	0.0032285985
108	0xbc9a2968	-0.018818572
109	0xbd82f6d0	-0.06394732
110	0xbd4e110a	-0.05030922
111	0x3d3a9c6f	0.045559343
112	0x3c7e9aea	0.015539864
113	0xbd01a53f	-0.03165173
114	0x3d9faf3d	0.07797096
115	0xbd63df70	-0.05563301
116	0xbbc80a84	-0.006104769
117	0x3d1582ed	0.036501814
118	0xbd9360eb	-0.0719622
119	0xbcafadc6	-0.021445166
120	0x3d10131a	0.035174467
121	0x3d507ab2	0.05089826
122	0x3c994ba0	0.018712819
123	0x3d19fe75	0.037596185
124	0x3d64d676	0.05586859
125	0x3d2b4c6f	0.04182094
126	0xbdb1e19e	-0.08685611
127	0xbd26b966	-0.040704153
128	0xbc9ba774	-0.019000746
129	0xbd691029	-0.056900177
130	0x3d5252b2	0.051348396
131	0xbc9e3465	-0.019312093
132	0x3b8b8fee	0.004259101
133	0xbd2bf8ee	-0.041985445
134	0x3cfc333d	0.030786151
135	0x3db195cf	0.08671152
136	0xbd017149	-0.031602178
137	0xbd45251a	-0.048131086
138	0x3a2e8d1a	0.0006658599
139	0xbcb85f51	-0.022506388
140	0xbd3a6139	-0.045502875
141	0x3d9c728a	0.07639034
142	0x3d5f3039	0.054489348
143	0xbc951f53	-0.018203413
144	0xbda47543	-0.080301784
145	0x3d5834da	0.05278478
146	0xbd0211da	-0.031755306
147	0x3ce1d724	0.027568407
148	0xbcfec31b	-0.031098893
149	0x3d2b3096	0.041794382
150	0x3c6cf161	0.014461846
151	0xbd909a24	-0.0706065
152	0x3d0bc7a9	0.034125958
153	0x3b88ee20	0.0041787773
154	0x3d2d2f1e	0.042281263
155	0xbd6c2ee2	-0.0576619
156	0xbd7181dc	-0.058961734
157	0xbd58fbab	-0.052974384
158	0x3ce3a2c2	0.02778757
159	0x3d82dc6b	0.06389698
160	0xbd78ffdb	-0.060790878
161	0xbb9fe536	-0.004879619
162	0x3d17a3ca	0.037021436
163	0x3c4ea917	0.012613556
164	0xbd4a30c4	-0.049362913
165	0xbe075a7d	-0.13218112
166	0xbcba1a92	-0.022717748
167	0x3d10ff10	0.035399497
168	0xbd03c568	-0.032170683
169	0x3ccd1602	0.025034908
170	0x3cad01bd	0.021118993
171	0xbc86fca9	-0.0164779
172	0xbc4b0454	-0.012391169
173	0x3d93747e	0.071999535
174	0x3d27df58	0.04098448
175	0x3c356af7	0.011072866
176	0xbcabbd3b	-0.020964256
177	0x3cf0e051	0.029403837
178	0x3dc4c0cc	0.096070856
179	0x3debb272	0.11508645
180	0x3d50c3f5	0.05096813
181	0x3d0ce79b	0.034400564
182	0xbd731318	-0.05934438
183	0xbd34e941	-0.04416776
184	0xbd63a946	-0.055581354
185	0xbc8ddf8e	-0.017318513
186	0xbda05fb8	-0.07830757
187	0x3d161b41	0.036647085
188	0x3ca1b13b	0.01973783
189	0xbcc6025b	-0.024171045
190	0xbe27307b	-0.16327088
191	0xbde8d231	-0.11368216
192	0xbdedb5f9	-0.11606974
193	0xbd44c5e9	-0.048040304
194	0xbdbc369b	-0.09190103
195	0xbd04f364	-0.032458678
196	0xbd928fdd	-0.07156346
197	0x3c8ab7fa	0.01693343
198	0x3d22aa8e	0.039713435
199	0xbd4050cb	-0.04695205
200	0xbdcce7e0	-0.10005164
201	0xbded30f2	-0.11581601
202	0xbdef3e9a	-0.11681862
203	0xbdb5bdf5	-0.08874122
204	0xbc85be8f	-0.016326217
205	0xbe0c51b6	-0.13703045
206	0xbe08b653	-0.13350801
207	0xbda67fd0	-0.08129847
208	0x3d801c57	0.062554054
209	0xbc58f8cb	-0.013242911
210	0x3d79c520	0.06097901
211	0x3c9e45c1	0.01932037
212	0x3db09c18	0.086235225
213	0x3d66e74e	0.056372933
214	0x3d5a069d	0.053228963
215	0x3c627eff	0.013824224
216	0xbd5eb47d	-0.054371346
217	0x3caae434	0.020860769
218	0x3d1c8f29	0.038222466
219	0xbc1256e0	-0.008931845
220	0xbd2ef384	-0.042712703
221	0xbe080514	-0.13283187
222	0xbda3ce8a	-0.079983786
223	0x3cded01d	0.027198846
224	0xbd829a5e	-0.063770995
225	0xbe006ece	-0.12542269
226	0xbdf0094a	-0.11720522
227	0xbdc93d79	-0.09826178
228	0x3da48500	0.0803318
229	0xbd5cb031	-0.053878967
230	0xbd96a3f8	-0.07355493
231	0x3d7e21ac	0.06204383
232	0x3d894a36	0.06703608
233	0x3db83e6b	0.0899628
234	0x39869d97	0.00025675885
235	0xbc4fe1d0	-0.012688115
236	0x3db8fb56	0.090323135
237	0x3c94f833	0.018184757
238	0x3ddd4dc7	0.108058505
239	0x3dda1d84	0.10650161
240	0xbe00e543	-0.12587456
241	0xbde54e4f	-0.11196577
242	0xbb5722ee	-0.0032827216
243	0xbdd576cf	-0.104230516
244	0xbd90fa6b	-0.070790134
245	0xbdf20216	-0.11816804
246	0xbc2abe52	-0.010421352
247	0xbd31e633	-0.043432426
248	0xbda18020	-0.07885766
249	0xbd88d4eb	-0.06681236
250	0xbc28ca40	-0.010302126
251	0x3b8369e5	0.0040104263
252	0x3b3ee7b4	0.0029129805
253	0xbd507931	-0.050896827
254	0x3dade841	0.084915645
255	0xbcbfbdf0	-0.023405999

net.3.bias f4 [64]
0	0xbd593740	-0.053031206
1	0xbd8d4d7f	-0.06899547
2	0x3d8b5c72	0.06804742
3	0xbd4831f9	-0.048875783
4	0x3d7f68af	0.062355693
5	0xbda1d75c	-0.07902405
6	0xbd8dd27d	-0.06924913
7	0xbd4031a2	-0.046922334
8	0x3d3c14cd	0.045918275
9	0x3b8d9942	0.0043212483
10	0x3d666833	0.056251716
11	0x3d84f44c	0.064919084
12	0xbba70405	-0.0050969147
13	0x3db130a2	0.08651854
14	0x3c0db1dc	0.008648362
15	0xbd1896f5	-0.03725334
16	0xbd67dcd8	-0.056607097
17	0xbdd5e180	-0.10443401
18	0xbd561544	-0.052266374
19	0xbcdc5ec7	-0.026900662
20	0xbd9df10a	-0.0771199
21	0xbd47d6f3	-0.048788976
22	0xbd95a476	-0.07306759
23	0xbcae6a48	-0.021290913
24	0x3c8cd5af	0.017191736
25	0xbcbf92c0	-0.023385406
26	0x3ce7b480	0.028284311
27	0xbd42b01a	-0.047531225
28	0x3d4cd813	0.050010752
29	0xbd03ea9d	-0.032206167
30	0xbd1219ba	-0.035669066
31	0x3d59e96e	0.05320113
32	0x3d5d3a7a	0.054010846
33	0xbda05961	-0.07829548
34	0x3d552ab1	0.052042667
35	0x3cc07802	0.023494724
36	0xbcf9e523	-0.030504769
37	0xb9b46728	-0.00034409133
38	0xbd3a49ec	-0.045480654
39	0x3db0a36d	0.08624921
40	0x3d104316	0.035220228
41	0x3ad581c3	0.0016289282
42	0xbc4222c3	-0.011849108
43	0xbdac5ae6	-0.08415775
44	0xbd05769e	-0.032583825
45	0xbd334ae4	-0.043772593
46	0xbd9a74c4	-0.075418025
47	0xbd77fe75	-0.060545404
48	0x3d3d8b70	0.046275556
49	0xbda5d324	-0.080969125
50	0xbcc224b7	-0.023699148
51	0xbdaa75e9	-0.08323271
52	0x3cdac1b9	0.026703702
53	0x3d6c0b20	0.057627797
54	0xbd761c8c	-0.06008582
55	0x3cef9c79	0.029249417
56	0x3c2fb957	0.010725341
57	0xbd6b96ad	-0.057516742
58	0xbc777569	-0.015103676
59	0xbd2f6043	-0.04281641
60	0xbc56146d	-0.013066393
61	0x3d5ed905	0.054406185
62	0x3d51bd50	0.051205933
63	0xbd03a414	-0.0321389

net.6.weight f4 [128, 64, 5]
0	0xbd9132d8	-0.07089776
1	0xbd845728	-0.06461936
2	0x3c251653	0.010076123
3	0x3d132f57	0.03593382
4	0xba94b9b0	-0.0011346843
5	0xbcd4a8f6	-0.025959473
6	0xbd61de05	-0.055143375
7	0x3d5a8416	0.053348623
8	0x3c843d0f	0.016142396
9	0x3d8e56fc	0.06950185
10	0x3cbcc359	0.023042368
11	0x3cbda604	0.023150451
12	0xbd5017bf	-0.050803896
13	0xbbfcbad0	-0.0077126995
14	0x3d451772	0.048118062
15	0x3cd12795	0.02553157
16	0x3c34b474	0.0110293515
17	0x394aac79	0.00019328472
18	0xbce2f8a7	-0.027706457
19	0xbc91de43	-0.017806178
20	0x3b9a273f	0.0047043855
21	0xbd054ba7	-0.03254285
22	0xbcc5dba6	-0.024152588
23	0x3cf766cf	0.03020039
24	0x3c25da28	0.010122813
25	0x3ba01e75	0.0048864433
26	0xbc839042	-0.016059998
27	0xbc24b23c	-0.01005226
28	0x3d11deaf	0.03561276
29	0x3cc7d8cd	0.02439537
30	0xbc0e1bf3	-0.008673656
31	0xbbebee5d	-0.007200046
32	0xbcec9d3e	-0.028883573
33	0xbd8df3f8	-0.06931299
34	0xbd11b52c	-0.03557317
35	0x3d40ce9a	0.04707203
36	0xbc93c9d8	-0.018040583
37	0x3c0ebc68	0.008711912
38	0x3cc152ee	0.023599114
39	0x3d62f977	0.05541369
40	0xbb419815	-0.002954011
41	0x3d72ad33	0.059247207
42	0x3c058b24	0.0081508495
43	0x3cf7b108	0.030235782
44	0x3c7df499	0.015500211
45	0x3ce3b8f5	0.027798155
46	0x3bf31b58	0.007419031
47	0x3a7c7b5f	0.0009631421
48	0xbd0902ec	-0.033450052
49	0xbd2ab8b6	-0.04168006
50	0xbd15fc37	-0.036617484
51	0x3c833a94	0.016019143
52	0xbd565566	-0.052327536
53	0x3d2ae699	0.04172382
54	0xbc8f10f2	-0.017464135
55	0xbd73e3a3	-0.059543263
56	0xbbdeca28	-0.0067990012
57	0xbc5c520c	-0.013447296
58	0xbd6b690f	-0.05747324
59	0x3c0b901a	0.008518243
60	0xbd1f855a	-0.038945533
61	0x3d4e57f1	0.050376836
62	0xbd26d2d5	-0.04072841
63	0xbd2426e5	-0.040076155
64	0xbcf0b9ba	-0.029385436
65	0xbd6c9aec	-0.057764933
66	0x3c494d97	0.012286565
67	0x3d1be89d	0.038063634
68	0xbd5563d2	-0.05209715
69	0x3cf86d3e	0.030325528
70	0xbd123193	-0.03569181
71	0x3ca82043	0.020523196
72	0x3c733d70	0.014846191
73	0x3d227445	0.039661665
74	0xbd169575	-0.036763627
75	0xbbddcd83	-0.0067688837
76	0xbd64574a	-0.055747308
77	0xbd870e22	-0.065944925
78	0xbceb85e3	-0.028750366
79	0xbd2d9ccb	-0.042385858
80	0xbcf1d766	-0.029521655
81	0xbc63297b	-0.01386487
82	0x3c5b72b2	0.013394045
83	0xbc9408d9	-0.018070625
84	0x3c310da3	0.010806474
85	0x3c9a83b8	0.018861637
86	0x3d369ba1	0.044582013
87	0x3d6c01a6	0.05761876
88	0x3d0d03e0	0.034427524
89	0x3d01825f	0.031618472
90	0xbcb58dd4	-0.022162355
91	0x3c421a57	0.0118471
92	0x3d1c2bc1	0.038127664
93	0x3bf21fec	0.0073890593
94	0xbd0da30d	-0.034579325
95	0xbcec41ff	-0.028840063
96	0xbc928025	-0.01788337
97	0xbd272558	-0.0408071
98	0xbc146c65	-0.009059046
99	0xbce4715d	-0.027886087
100	0xbcf3c0d6	-0.029755037
101	0xbccc6adb	-0.024953296
102	0x3bdae17e	0.006679713
103	0x3ce79994	0.028271474
104	0x3d1a9f45	0.037749548
105	0x3c3a8bd3	0.011385876
106	0xbb8c1b3a	-0.0042757066
107	0xbda19d55	-0.07891337
108	0xbd8596fe	-0.0652294
109	0x3cdfba6e	0.027310576
110	0xbc9b42e6	-0.018952798
111	0xbd2376e7	-0.039908316
112	0x3d2f84e5	0.042851347
113	0xbc314311	-0.0108192125
114	0x3d26a6af	0.040686306
115	0xbd41249a	-0.047154047
116	0xbd0f37ec	-0.03496544
117	0xbc969c9d	-0.018385226
118	0xbd315353	-0.043292355
119	0x3cc793e3	0.02436251
120	0x3c58968c	0.013219487
121	0xbd44b62f	-0.048025306
122	0x3cb266a7	0.021777464
123	0x3d2b7b65	0.041865725
124	0x3c13907a	0.009006614
125	0x3d106690	0.03525406
126	0xbc69c0b9	-0.01426714
127	0xbc558143	-0.013031307
128	0x3c1ae59c	0.009454157
129	0xbbec7ca5	-0.007217007
130	0xbd6056ce	-0.054770283
131	0x3c6cea73	0.014460194
132	0xbd4b2e18	-0.049604505
133	0xbcc15307	-0.02359916
134	0x3c5d6ed0	0.013515189
135	0xbd3755a0	-0.044759393
136	0xbd7c779b	-0.061637502
137	0xbd0524d6	-0.032505833
138	0xbd7cffba	-0.061767317
139	0x3cd37b82	0.025815729
140	0x3c70f387	0.014706499
141	0xbd7b98f1	-0.061425153
142	0xbd7d3fca	-0.061828412
143	0xbc9ce3a4	-0.019151516
144	0xbcb6fc0f	-0.022336988
145	0x3c89c8b4	0.016819336
146	0xbcc9cd48	-0.024634019
147	0xbcda9c44	-0.026685841
148	0x3c8241d1	0.015900524
149	0x3ca5fef5	0.020263175
150	0xbdab746e	-0.083718166
151	0xbdb0db65	-0.08635596
152	0xbd0dacd3	-0.034588646
153	0xbc5caf0e	-0.013469471
154	0xbbd9703c	-0.006635694
155	0xbcdc2572	-0.026873324
156	0x3ce7ab53	0.028279936
157	0xba4908f9	-0.00076688785
158	0x3d1b782f	0.037956413
159	0x3d1fc107	0.039002445
160	0xbd1c1114	-0.038102224
161	0x3d451ab4	0.04812117
162	0x3c009d44	0.007849995
163	0x3cdd9965	0.027050683
164	0x3bc93238	0.0061400197
165	0x3baa162f	0.005190633
166	0xbd89020b	-0.06689843
167	0xbcea8ba1	-0.028631033
168	0xbd4d34bc	-0.05009912
169	0x3ca4544c	0.020059727
170	0xbc466916	-0.012110015
171	0x3c9df465	0.019281575
172	0xbd18100c	-0.03712468
173	0xbd0edd1d	-0.03487884
174	0xbcbe7124	-0.023247309
175	0xbd115ba9	-0.035487805
176	0x3bfc1302	0.0076926956
177	0xbcfc5455	-0.030801931
178	0xbc52fc9f	-0.012877612
179	0x3c225342	0.0099075455
180	0xbcc014e1	-0.023447456
181	0xbd75f8da	-0.060051776
182	0xbb96e466	-0.004604864
183	0xbd22c3ce	-0.039737515
184	0xbd53a79d	-0.05167352
185	0xbd187f6e	-0.0372309
186	0x3d8278ab	0.06370672
187	0x3c6a9833	0.014318514
188	0x3d46ca4e	0.048532777
189	0xbcf8c8c1	-0.030369164
190	0xbd6783db	-0.05652223
191	0xbda50f77	-0.0805959
192	0xbda8ff38	-0.08251804
193	0x3c5191bc	0.012791093
194	0xbc1251dc	-0.00893065
195	0xbd063ac7	-0.0327709
196	0x3b47f3d0	0.0030510314
197	0xbce2bfde	-0.02767938
198	0x3c3bd027	0.011463202
199	0x3d006933	0.031350326
200	0xbd5eb442	-0.054371126
201	0xbd7206f2	-0.059088655
202	0xbc894edc	-0.016761236
203	0xbd23adcd	-0.03996067
204	0xbd35693e	-0.04428982
205	0x3d7eca95	0.062204916
206	0xbc075b60	-0.008261532
207	0x3c3991ef	0.011326297
208	0x3c5a9f90	0.013343707
209	0xbb9620ab	-0.004581531
210	0xbd0dba84	-0.034601703
211	0xbda75546	-0.081705615
212	0xbd62f65e	-0.055410735
213	0xbd6e86f0	-0.058234155
214	0x3d69ca08	0.057077438
215	0x3cdfd841	0.027324798
216	0x3d933391	0.0718757
217	0x3d89011d	0.066896655
218	0x3b04b143	0.0020247258
219	0xbb9455e7	-0.004526842
220	0x3c42495b	0.01185831
221	0xbd711d72	-0.058865972
222	0xbd782c83	-0.060589325
223	0x3c7778bb	0.015104468
224	0xbd4f7b97	-0.050654974
225	0x3cdb966d	0.026805127
226	0x3ccde804	0.025135048
227	0x3d74cf0f	0.05976778
228	0x3c212f7e	0.009837983
229	0x3d85c239	0.06531186
230	0xbcb306bd	-0.021853799
231	0xbd206e2b	-0.039167564
232	0xbce79c5b	-0.028272798
233	0xbcab4f63	-0.020911878
234	0x3af7a102	0.0018892589
235	0x3d3d67ae	0.046241455
236	0xbce6036f	-0.02807781
237	0xbc517366	-0.012783861
238	0xbcbafe94	-0.02282647
239	0xbd278b9c	-0.040904626
240	0x3d5f117c	0.054460034
241	0x3d0f7f0d	0.035033274
242	0x3c6cc473	0.014451134
243	0x3a7832f7	0.00094680436
244	0xbcbc1977	-0.022961361
245	0x3c3dd83a	0.011587197
246	0x3d3bf810	0.045890868
247	0x3d21a14b	0.03946046
248	0x3cb6e367	0.02232523
249	0x3d8d8307	0.06909757
250	0x3cfdb9a6	0.030972313
251	0x3c469e8e	0.012122763
252	0x3cc8a08c	0.024490617
253	0x3c954d7c	0.018225424
254	0x3c88f423	0.016717976
255	0x3c5e60e5	0.013572906

net.6.bias f4 [128]
0	0x3ce98c20	0.0285092
1	0xbbca40f8	-0.0061722957
2	0xbcb8b766	-0.022548389
3	0x3cfdb74d	0.030971194
4	0xbb0bbddf	-0.0021322889
5	0x3c810327	0.015748573
6	0x3c8bc564	0.017061897
7	0x3cd834d9	0.026392387
8	0xbb1978e2	-0.0023418
9	0xbd6adb1f	-0.057337876
10	0x3c2598bd	0.010107216
11	0x3aee07b7	0.0018160258
12	0xbd2b4a6d	-0.041819025
13	0xbd820e0d	-0.06350336
14	0x3cb99783	0.022655254
15	0x3c033f17	0.008010647
16	0xbcf6979e	-0.030101594
17	0x3d3c857f	0.04602575
18	0x3d350575	0.044194657
19	0x3c95b97b	0.01827692
20	0xbcbb7455	-0.02288262
21	0x3d023c3b	0.03179572
22	0xbd10b81e	-0.035331838
23	0x3ccc3c6e	0.024931159
24	0xbcb72fa3	-0.022361582
25	0x3d4056e4	0.046957865
26	0xbcc81cc8	-0.024427786
27	0x3d4a5b59	0.049403522
28	0xbd891d8c	-0.06695089
29	0xba833d12	-0.0010012707
30	0x3cb9f67f	0.022700546
31	0xbd31c953	-0.04340489
32	0xbccfccc1	-0.025366189
33	0xbd90f7a9	-0.070784874
34	0xbc3d051b	-0.011536862
35	0xbd50393b	-0.05083583
36	0x3d1db3b4	0.038501456
37	0x3d45a417	0.04825219
38	0xbc5e744c	-0.013577532
39	0xbd364b86	-0.04450562
40	0xbd091731	-0.033469383
41	0x3c2f2d93	0.010692018
42	0xbd36bacc	-0.044611737
43	0x3cee51b5	0.029091695
44	0x3d092edd	0.033491958
45	0x3d13f79c	0.03612481
46	0xbcfd72da	-0.030938555
47	0xbd15b8b3	-0.036553096
48	0xbcd61cfd	-0.02613687
49	0x3cb091b6	0.021553855
50	0xbabbae17	-0.0014318851
51	0x3d3d8fc9	0.046279702
52	0x3c498faa	0.012302319
53	0xbd22da53	-0.03975899
54	0x3cfb0cfd	0.030645842
55	0xbc18845f	-0.0093089035
56	0x3d2f2f65	0.04276981
57	0x3d60a7a8	0.05484739
58	0x3b18745b	0.0023262713
59	0x3c9ff62e	0.019526567
60	0xbd1bc6c9	-0.038031373
61	0xbcf0d66e	-0.029399123
62	0xbd403541	-0.046925787
63	0x3d466e44	0.048445
64	0xbd44f7c0	-0.048087835
65	0xbcc815c7	-0.024424447
66	0x3d033140	0.03202939
67	0x3d3042b2	0.043032356
68	0xbd150247	-0.036379125
69	0x3d474a6e	0.048654966
70	0xbd44714c	-0.04795961
71	0xbd32c1a9	-0.04364172
72	0xbc3e2c95	-0.011607309
73	0xbd210d29	-0.03931919
74	0xbd8b5b76	-0.06804554
75	0xbd6db177	-0.05803057
76	0xbcb39719	-0.021922635
77	0xbc327266	-0.0108915325
78	0x3d4c7b5b	0.04992233
79	0xbd8f6407	-0.070015006
80	0xbd679767	-0.056540873
81	0x3ceafac8	0.028684035
82	0x3c47e9bd	0.012201724
83	0xbd547925	-0.051873345
84	0x3dd541b4	0.104129225
85	0x3cabf2e0	0.020989835
86	0x3d32693d	0.043557394
87	0xbcd27070	-0.02568838
88	0xbd1a65ad	-0.03769462
89	0xbd65f5e8	-0.056142718
90	0xbc4ceefd	-0.012508151
91	0x3cdfa59d	0.02730065
92	0x3d3ac6f5	0.045599896
93	0x3d69d2ce	0.057085805
94	0xbbe505d8	-0.006989222
95	0x3cfcfe1a	0.030882884
96	0x3cbd7812	0.023128543
97	0x3c51302d	0.012767834
98	0xbd6e8d78	-0.058240384
99	0x3d19a907	0.037514713
100	0x3d518118	0.051148504
101	0xbcc9b7a1	-0.024623694
102	0xbd45ae32	-0.04826183
103	0x3d418cdb	0.04725347
104	0x3d14ae49	0.036299024
105	0x3ce3a7bd	0.027789945
106	0x3d3e6954	0.046487167
107	0xbc309682	-0.010778071
108	0xbbf88a95	-0.0075848796
109	0xbd67f0b5	-0.05662604
110	0xbd4649e1	-0.0484103
111	0x3d3d0ef3	0.046156835
112	0x3d11c2d9	0.03558621
113	0x3d287cbb	0.041134577
114	0x3cc26994	0.023731984
115	0xbcb16799	-0.021655845
116	0xbc9e0063	-0.019287294
117	0xbb33fa83	-0.002746255
118	0x3cc3baed	0.023892844
119	0x3d2dbe9b	0.042418104
120	0xbd52517e	-0.05134725
121	0xbd6ac613	-0.057317805
122	0x3d05bbdb	0.032649856
123	0x3cdb6e8e	0.026786115
124	0xbd1aa7ce	-0.037757687
125	0xbc93b06e	-0.018028464
126	0xbbd09d42	-0.006366403
127	0x3d32159d	0.043477643

net.9.weight f4 [256, 128, 5]
0	0x3c926ed3	0.01787511
1	0x3c8f5aa3	0.017499274
2	0x3bada1be	0.005298822
3	0xbb746ffb	-0.003729819
4	0x3c27d4e8	0.010243632
5	0xbd020517	-0.031743135
6	0xbaf7da94	-0.0018909746
7	0xbc065e79	-0.008201235
8	0xbb7fc8f2	-0.0039029685
9	0xbd321b56	-0.0434831
10	0xbd142a7d	-0.036173332
11	0xbcb254d0	-0.021768957
12	0xbcf8771e	-0.030330237
13	0xbd017fb2	-0.03161592
14	0x3c70e7b4	0.01470368
15	0xbc2e326d	-0.01063214
16	0xbd0c0917	-0.034188356
17	0xbd335aa5	-0.043787617
18	0xbcd6e407	-0.026231779
19	0xbcee73b3	-0.029107904
20	0x3ce88974	0.028385855
21	0x3d095f01	0.03353787
22	0x3d1ecb80	0.03876829
23	0x3aa16f07	0.0012316414
24	0xbd0449b5	-0.032296855
25	0xbd3fb94f	-0.046807583
26	0x3cf67d75	0.03008912
27	0x3c83a627	0.016070439
28	0x3d032d64	0.03202571
29	0xbc0036b9	-0.007825547
30	0x3cc46e11	0.023978265
31	0xbccdd156	-0.025124233
32	0x3beca9fb	0.0072224117
33	0xbc9ffb3d	-0.01952898
34	0x3c3f1b80	0.011664271
35	0xbd4fe948	-0.050759584
36	0xbbd69698	-0.006548714
37	0xbc9394be	-0.018015262
38	0x3c2e2945	0.010629957
39	0xbd0425e0	-0.032262683
40	0x3cbeeae0	0.023305357
41	0x3b7a34ff	0.003817856
42	0x3cbae124	0.022812434
43	0xbd062d05	-0.032757778
44	0xbb8ad8e4	-0.004237281
45	0xbd19d0d6	-0.037552677
46	0xbc7df86a	-0.015501121
47	0x3c1cd66d	0.009572607
48	0xbc800bf2	-0.015630696
49	0xbcf37ab1	-0.02972159
50	0x3bc28fbf	0.005937546
51	0x3ca3e009	0.02000429
52	0x3a54e78f	0.0008121663
53	0xbc9835dd	-0.018580372
54	0x3c630f72	0.013858663
55	0xbd228f37	-0.03968736
56	0x3c49b8c2	0.012312116
57	0xbd2a5eed	-0.041594435
58	0x3cb6b858	0.022304699
59	0x3a78c551	0.00094898517
60	0xbd3d8725	-0.046271462
61	0xbc11e16a	-0.008903841
62	0xbd1928e6	-0.03739252
63	0x3b8c14fc	0.0042749625
64	0xbcd73755	-0.026271502
65	0xbbaf76d0	-0.0053547397
66	0xbbb45b00	-0.005504012
67	0xbc56305a	-0.013073051
68	0x3cc21b9e	0.02369481
69	0x3c8399c0	0.016064525
70	0x3cb54617	0.022128148
71	0x3ceab2a8	0.028649643
72	0xbc169c63	-0.009192559
73	0x3c6e688d	0.014551294
74	0x3b687489	0.003546985
75	0xbc9a813c	-0.018860452
76	0xbbb8ec0b	-0.005643373
77	0xbc91e49c	-0.017809205
78	0x3cdb8297	0.026795669
79	0xbd157803	-0.036491405
80	0x3c723cf7	0.014785043
81	0x3d17e82a	0.037086643
82	0xbb4bf34e	-0.0031120363
83	0x3cbfa76c	0.023395263
84	0xbc4ca6db	-0.012490953
85	0xbd29f2c6	-0.041491292
86	0x3bbbe161	0.0057336544
87	0xbcb2892c	-0.021793924
88	0x3ce41f2d	0.027846897
89	0x3c7433a4	0.01490489
90	0x3c9b5155	0.01895968
91	0xbd188d72	-0.037244268
92	0xbc090c61	-0.008364768
93	0x3ce24ef5	0.02762554
94	0xbce8c5b7	-0.02841459
95	0xbd3d6a9f	-0.04624426
96	0x3d06451c	0.03278075
97	0xbbf837a3	-0.007574992
98	0xbcb73adb	-0.022366932
99	0xbcc3ad5d	-0.023886377
100	0xba03fa76	-0.0005034575
101	0xbd261d1b	-0.0405551
102	0xbc8d4e21	-0.017249169
103	0x3c8b8beb	0.017034492
104	0xbc80080b	-0.015628835
105	0x3c535617	0.012898943
106	0xbc3b1af8	-0.011420004
107	0xbc1b6010	-0.009483352
108	0x3c6682bc	0.014069255
109	0x3d0d4b56	0.034495674
110	0x3a27b09d	0.0006396862
111	0xba5715ab	-0.0008204828
112	0x3c0bce40	0.008533061
113	0x3ac9daef	0.001540033
114	0xbd08bf38	-0.033385485
115	0xbca46ce5	-0.020071456
116	0x3c50e5a0	0.012750059
117	0xbd3fbee4	-0.046812907
118	0x3ca5caff	0.020238398
119	0xbccba43f	-0.024858592
120	0xbbe31a8f	-0.0069306563
121	0x3bf7efc8	0.007566426
122	0x3c47190e	0.01215197
123	0x3cdc4fff	0.026893614
124	0xbc3e99c1	-0.0116333375
125	0xbd434deb	-0.04768173
126	0x3b3026dd	0.0026878633
127	0x3ca1cd78	0.019751295
128	0xbc403c41	-0.011733116
129	0x3c20ac53	0.00980671
130	0xbc0036d4	-0.007825572
131	0xbc520e8e	-0.012820853
132	0x3d161549	0.036641393
133	0xbd001081	-0.03126574
134	0xbcedbf00	-0.02902174
135	0x3bef9727	0.00731172
136	0xbce7d49a	-0.028299619
137	0xbb13187e	-0.0022445018
138	0xbcff9a13	-0.031201398
139	0x3c8f36be	0.017482158
140	0x3c8dad00	0.017294407
141	0xbb11c250	-0.0022241063
142	0xbc8ec142	-0.017426137
143	0x3cb13460	0.02163142
144	0xbd0fa248	-0.035066873
145	0x3cdcc23a	0.026948083
146	0x3b4f5360	0.0031635389
147	0xbc73ae96	-0.0148731675
148	0xbcbff354	-0.023431458
149	0x3b269b00	0.0025421977
150	0x3c867f6e	0.016418185
151	0xbc5b9f38	-0.01340466
152	0x3c6507d3	0.013978916
153	0xbcfeda61	-0.03110999
154	0xbd2a7164	-0.041612044
155	0xbbbcadc0	-0.0057580173
156	0xbc44fed1	-0.012023644
157	0xbc61a90f	-0.013773217
158	0xbd23cda7	-0.039991047
159	0xbca433ed	-0.020044291
160	0x3cb10588	0.021609083
161	0x3d00ce07	0.031446483
162	0xbd214e49	-0.0393813
163	0xbcd03ed0	-0.025420576
164	0xbc9a59bc	-0.018841617
165	0xbcc238cc	-0.023708723
166	0xbcac2139	-0.021011936
167	0x3c441414	0.011967678
168	0xbd1fc376	-0.039004765
169	0xbce3e67b	-0.027819863
170	0xbd2ae548	-0.041722566
171	0x3d1c8747	0.038214948
172	0xbc5f0beb	-0.013613681
173	0x3c997dd0	0.01873675
174	0x3c571847	0.013128347
175	0xbbf22296	-0.007389377
176	0xbd00da22	-0.031458028
177	0xbb1a1c48	-0.0023515392
178	0x3cb43a4d	0.022000456
179	0xbd1750b9	-0.036942217
180	0x3b05d6ed	0.0020422295
181	0x3c9857d3	0.018596565
182	0xbd0bcf8a	-0.03413347
183	0x3c58e550	0.013238266
184	0xbd3a976a	-0.045554556
185	0xbd34ef10	-0.0441733
186	0xbc97a619	-0.018511819
187	0xbcd4d1ad	-0.025978887
188	0xbc9dc481	-0.01925874
189	0xbd1b6212	-0.037935324
190	0xbc6eaf1c	-0.0145681165
191	0xbc88f974	-0.016720511
192	0x3cd63bc9	0.026151555
193	0xbc058576	-0.008149495
194	0x3cd41ae9	0.025891738
195	0x3ca15b3e	0.019696828
196	0xbce04b37	-0.027379615
197	0xbd27a427	-0.040928032
198	0xbd2e869b	-0.04260884
199	0xbcaac69c	-0.020846657
200	0xbd0f38b1	-0.034966175
201	0x3cd9e55a	0.026598621
202	0xbd0a2efe	-0.03373622
203	0x3c14fefe	0.009093998
204	0x3b33e821	0.0027451592
205	0xbd12411e	-0.03570663
206	0x3cb9e944	0.022694238
207	0x3ccb1e62	0.024794761
208	0x3c2c172f	0.010503574
209	0x3b7ed101	0.00388819
210	0xbccc973e	-0.024974462
211	0x3ba6509b	0.005075527
212	0x3cc763aa	0.024339516
213	0xbd2ed824	-0.042686597
214	0xbb8fd28d	-0.0043891133
215	0x3bc006c1	0.00586018
216	0xbc869fe2	-0.01643366
217	0x3c628123	0.013824734
218	0xbd1da76e	-0.03848975
219	0x3c6f94b7	0.014622859
220	0x3c6fd989	0.014639267
221	0x3d3650c8	0.044510633
222	0x3b9835f9	0.004645106
223	0x3c870d14	0.016485728
224	0x3cb9ffd9	0.022705005
225	0xbc176166	-0.00923953
226	0x3d18b6b8	0.03728363
227	0x3cb5b3ff	0.022180555
228	0xbbe8a3dd	-0.007099612
229	0x3caa4477	0.0207846
230	0x3c76c39c	0.015061285
231	0x3cdabb26	0.026700567
232	0xbcc8c839	-0.024509536
233	0xbd28c162	-0.04120005
234	0xbc3b59f7	-0.0114350235
235	0x3b206120	0.0024471954
236	0xbcd3a28a	-0.02583434
237	0x3c6e96a7	0.0145622855
238	0xbbea3d4c	-0.0071484204
239	0x3c4a8673	0.012361157
240	0xbb66f33c	-0.0035240194
241	0xbcdc7097	-0.026909156
242	0x3cff50a6	0.031166386
243	0xbca7b3fb	-0.020471564
244	0x3c3f2363	0.011666152
245	0xbca7997d	-0.020458931
246	0xbbe9a085	-0.007129731
247	0x3c92305d	0.017845327
248	0x3aa14c7a	0.0012306117
249	0x3cda9d6f	0.026686398
250	0xbcd4dea1	-0.025985064
251	0xbcc27ce9	-0.023741202
252	0xbbbe34ca	-0.005804633
253	0xbd2c65c6	-0.042089246
254	0x3d15676f	0.036475595
255	0xbd3c6c23	-0.046001565

net.9.bias f4 [256]
0	0xbd27cb1e	-0.040965192
1	0x3d3fc582	0.046819218
2	0x3bda9f84	0.006671848
3	0x3d07bb26	0.033137463
4	0xbd1b0ce8	-0.037854105
5	0xbcd4e809	-0.02598955
6	0x3a90fb12	0.0011061153
7	0x3ca1078b	0.019656917
8	0xbd2da61d	-0.042394746
9	0x3d1ee327	0.038790848
10	0x3c6b0730	0.014344975
11	0x3ccacb30	0.02475509
12	0xbd26d2ad	-0.04072826
13	0xbcc65796	-0.024211686
14	0x3d708aca	0.05872611
15	0x3cac957d	0.021067375
16	0x3c2609a8	0.010134138
17	0x3d0605ff	0.032720562
18	0x3c72a3de	0.014809577
19	0x3cf19760	0.029491127
20	0xbc419705	-0.011815791
21	0xbd42099d	-0.04737245
22	0x3d1f919d	0.038957227
23	0x3d1dfadf	0.038569327
24	0x3be72f73	0.007055217
25	0xbc8f9efa	-0.01753186
26	0xbc090a9d	-0.008364347
27	0xbb2aa5a4	-0.002603867
28	0xbb1d209d	-0.0023975738
29	0x3ccc242c	0.024919592
30	0x3d25e150	0.040498078
31	0x3cac3309	0.02102043
32	0x3afe2541	0.0019389765
33	0x3c6b1116	0.014347335
34	0xbcc5d2e5	-0.024148414
35	0x3c8aba66	0.016934585
36	0xbcc9a88d	-0.024616504
37	0x3d193783	0.037406456
38	0xbd2bbc22	-0.041927464
39	0xbc98c9b8	-0.018650874
40	0x3bfb588b	0.0076704673
41	0x3c5bd953	0.013418513
42	0x3c4cc56b	0.01249824
43	0x3d506555	0.050877888
44	0x3bc322b4	0.0059550647
45	0xbb330c71	-0.0027320648
46	0x3d1b2e6f	0.03788608
47	0x382024da	3.8181293e-05
48	0xbaacda73	-0.0013187662
49	0x3c7ab51a	0.015301967
50	0x3e2a563a	0.16634455
51	0x3d21ec8f	0.03953224
52	0xbb91a01a	-0.0044441344
53	0xbb9fcac2	-0.0048764655
54	0x3bbd950a	0.005785589
55	0xbd24bdaa	-0.04021994
56	0xbd2777db	-0.040885787
57	0x3d1e760c	0.038686797
58	0x3c2b3eff	0.010452031
59	0xbc07ff72	-0.008300649
60	0x3c3666d5	0.0111329155
61	0xbc272642	-0.0102019925
62	0x3d3fe7a0	0.046851754
63	0xbcb898d3	-0.02253381
64	0xbadc5a7b	-0.0016811633
65	0x3c7341a7	0.014847196
66	0xbd3efb2a	-0.046626247
67	0xbd0bbe2d	-0.034116913
68	0x3986dd35	0.00025723284
69	0x3d3a0787	0.045417335
70	0x3af9d970	0.0019061994
71	0x3d0abdb4	0.03387232
72	0xbb8f13dd	-0.0043663816
73	0x3bfad05c	0.007654233
74	0x3c03df9f	0.008048921
75	0xbce4035f	-0.027833639
76	0x3c85d1da	0.016335417
77	0x3b2ae403	0.0026075847
78	0xbc2e09c8	-0.010622449
79	0xbc6980aa	-0.014251867
80	0xbc4788f1	-0.0121786455
81	0xbb460b87	-0.0030219273
82	0xbcb161ec	-0.021653138
83	0xbceb2cae	-0.028707828
84	0xbb2d24a1	-0.0026419538
85	0xb97cfc5f	-0.00024126608
86	0x3d0055a9	0.031331692
87	0xbd520f53	-0.051284146
88	0xbc28f7d1	-0.01031299
89	0x3ca466c4	0.020068534
90	0xbc13c6af	-0.009019538
91	0xbc36ab28	-0.011149205
92	0xbd24fa6a	-0.040277876
93	0xbbe9bc7a	-0.007133064
94	0x3d108b4f	0.035289105
95	0x3c15e32a	0.009148398
96	0xbc142d3a	-0.009043986
97	0xbcff49b6	-0.031163078
98	0x3d185300	0.03718853
99	0xba59c3ec	-0.00083070877
100	0xbd2081ea	-0.039186396
101	0xbc3e71a1	-0.011623771
102	0xbd121772	-0.03566689
103	0xbd406f31	-0.04698104
104	0x3e1285a6	0.14308795
105	0x3d3fc97c	0.04682301
106	0x39144396	0.00014139558
107	0xbcb57908	-0.022152439
108	0xbd2e8b19	-0.042613123
109	0xbcf04fc6	-0.029334914
110	0xbcbdcfb6	-0.023170333
111	0x3d26b182	0.04069663
112	0x3d19aaff	0.03751659
113	0x3cec47db	0.028842857
114	0xbd3f5c3b	-0.046718817
115	0x3ca195de	0.019724783
116	0xbcc49ed4	-0.024001516
117	0xbd6a94e3	-0.057270896
118	0x3c5040c1	0.012710751
119	0x3c3e08a0	0.011598736
120	0xbc22f927	-0.009947098
121	0x3c5fdd09	0.013663539
122	0x3cbe8517	0.023256822
123	0xbc25acb2	-0.010111975
124	0xbd30691f	-0.043069
125	0xbcd5a234	-0.026078321
126	0xbcd4341f	-0.02590376
127	0xbb39775e	-0.0028299908
128	0x3cd3145e	0.025766548
129	0xbd272c5c	-0.04081379
130	0xbc016b51	-0.007899121
131	0xbcecff7f	-0.028930424
132	0xbd37789f	-0.044792768
133	0x3cc58e0a	0.024115581
134	0xbcabfa2e	-0.020993318
135	0xbc8006be	-0.015628215
136	0x3d151f55	0.036406834
137	0x3c54c113	0.012985486
138	0xbc32f41c	-0.010922458
139	0xbc85fe18	-0.016356513
140	0x3cc26399	0.023729132
141	0xbca37bbc	-0.019956462
142	0x3c8130eb	0.015770396
143	0x3c2aabdc	0.010416951
144	0x3d15ad42	0.036542185
145	0xbd22c509	-0.03973869
146	0x3c056652	0.008142071
147	0xbbe3f513	-0.0069567054
148	0x3cd6d633	0.026225185
149	0x3d2a93be	0.041644804
150	0x3ba86ffb	0.0051403022
151	0xbd16b80f	-0.036796626
152	0x3d4da307	0.050204303
153	0xbb74aff4	-0.0037336322
154	0xbcac2019	-0.0210114
155	0xbd594916	-0.053048216
156	0xbd13f3dc	-0.036121234
157	0x3c2eb9ba	0.010664398
158	0xbcd835e5	-0.026392886
159	0x3cb45c8f	0.022016792
160	0x3b702300	0.0036641955
161	0xbca08e57	-0.019599123
162	0xbc1d9dbc	-0.009620126
163	0xbcb1335c	-0.021630935
164	0xbd40c0dd	-0.04705893
165	0xbd682ce5	-0.05668344
166	0xbcfd607c	-0.030929796
167	0xbcf19571	-0.029490205
168	0xbd31793c	-0.04332851
169	0x3c9bc152	0.01901308
170	0x3c5691d9	0.013096296
171	0x3c695300	0.01424098
172	0xbd79cdca	-0.06098727
173	0x3c9d7516	0.01922087
174	0xb8f83623	-0.00011835645
175	0x3bb674e2	0.0055681327
176	0xbd353ea7	-0.044249203
177	0xbcd4fe65	-0.026000211
178	0xbc930b24	-0.017949648
179	0xbd30c055	-0.043152172
180	0x3c89bd2f	0.016813843
181	0x3c063350	0.008190945
182	0x3d038c92	0.03211648
183	0x3d33c087	0.04388478
184	0xbc8ec675	-0.017428616
185	0xbbae3a55	-0.0053170123
186	0xbc3f7596	-0.0116857495
187	0x3d19f4fc	0.03758715
188	0x3c96a991	0.018391402
189	0x3d4ffcf7	0.050778355
190	0x3d016d64	0.031598464
191	0xbce14148	-0.027496949
192	0x3b5b5bb8	0.0033471417
193	0xbca09f8a	-0.019607324
194	0xbc9cc0d8	-0.019134924
195	0xbc0d35f6	-0.008618822
196	0xbc6a21f8	-0.014290325
197	0xbce87092	-0.02837399
198	0x3cda04ed	0.026613677
199	0x3bf09c89	0.007342879
200	0xbb15abf2	-0.0022838083
201	0xbd14be8f	-0.036314543
202	0xbbdc486c	-0.0067225005
203	0xbcbd3ee1	-0.023101272
204	0x3cbf1cc9	0.023329156
205	0x3d3604b4	0.04443808
206	0xbbee9fa6	-0.007282215
207	0xbccef93c	-0.025265329
208	0x3d08e8db	0.033425193
209	0x3d1f9d44	0.03896834
210	0xbc31851f	-0.010834961
211	0x3c831e69	0.016005712
212	0xbc9fe067	-0.019516183
213	0x3cbe95ca	0.023264784
214	0xbc044134	-0.008072186
215	0x3d3c6d81	0.04600287
216	0x3c3a74c5	0.011380379
217	0x3d02bf97	0.031920996
218	0x3d440b94	0.047862604
219	0x3c9d0b11	0.019170316
220	0xbcdd3894	-0.027004518
221	0xbc5bc9ce	-0.013414813
222	0x3cb7138f	0.022348193
223	0x3ccc7573	0.024958348
224	0xbc42bba3	-0.011885556
225	0x3ca79c07	0.020460142
226	0x3c4d848f	0.012543811
227	0xbd3e7846	-0.04650142
228	0xbd15f058	-0.036606163
229	0x3cf2d3f2	0.029642079
230	0x3cd69912	0.026196036
231	0x3d8c2c64	0.06844404
232	0xbce1406c	-0.027496539
233	0x3d2ba990	0.041909754
234	0xbcad1aee	-0.021131005
235	0x3d1d5da8	0.038419396
236	0x3d144c3f	0.036205526
237	0xbcc78f45	-0.024360308
238	0xbcdfd733	-0.027324295
239	0xbb89c598	-0.004204463
240	0x3c069d6b	0.008216242
241	0x3da3d2c8	0.07999188
242	0xbca3a882	-0.019977812
243	0xbcad8c68	-0.021185115
244	0xbd72f9c3	-0.059320223
245	0x3b1247e3	0.002232068
246	0xbd22c7ce	-0.03974133
247	0xb9d97756	-0.00041478378
248	0xbcde2a34	-0.027119733
249	0xbbe8bf40	-0.007102877
250	0xbae313f9	-0.0017324678
251	0x3cfb138e	0.030648973
252	0x3c2d12d9	0.010563576
253	0xbc8cd6c7	-0.017192258
254	0x3bed207b	0.007236538
255	0xbbe213cb	-0.006899332

fc.weight f4 [2, 256]
0	0xbb9cb7cf	-0.004782654
1	0xbd9283a6	-0.07154016
2	0xbd102504	-0.03519155
3	0x3c24cd04	0.010058645
4	0x3da73652	0.08164658
5	0xbd218254	-0.03943093
6	0xbcad1a4f	-0.021130709
7	0xbcdd3cfb	-0.027006617
8	0x3dfee168	0.124453366
9	0xbd8bf262	-0.0683334
10	0xbd165fee	-0.03671258
11	0x3d222c24	0.039592877
12	0x3e002281	0.12513162
13	0x3cea5da4	0.028609104
14	0xbc95d4e6	-0.018289994
15	0xbd543d4d	-0.051816273
16	0x3c39f43e	0.011349736
17	0x3c159f1c	0.009132173
18	0xbcc0dbd3	-0.02354232
19	0xbcf62649	-0.030047553
20	0x3de902a1	0.113774545
21	0x3e34f262	0.17670587
22	0xbd71c73a	-0.059027888
23	0xbcbd0e31	-0.023078056
24	0xbd6111f7	-0.054948773
25	0x3d0dde31	0.034635726
26	0x3d640bc9	0.0556753
27	0x3c25db15	0.010123034
28	0xbd66dfc5	-0.056365747
29	0x3d3c62a3	0.045992505
30	0xbd2e7b84	-0.042598262
31	0xbd71c2b6	-0.05902358
32	0x3d850f02	0.06497003
33	0x3dbf8ebf	0.093533985
34	0x3d07dbd7	0.03316864
35	0x3d00cc2d	0.031444717
36	0xbce4a609	-0.027911203
37	0xbd9007e8	-0.07032758
38	0xbd0d280a	-0.034462012
39	0x3dd88a4f	0.10573255
40	0x3db2dcfb	0.08733555
41	0x3d3f488f	0.046700057
42	0x3ce5591f	0.027996598
43	0xbc82c92d	-0.015965069
44	0xbd26f19c	-0.04075776
45	0x3d9deab9	0.077107854
46	0x3c27ff30	0.010253713
47	0xbd27ae3f	-0.04093766
48	0xbdae8515	-0.08521477
49	0x3d7976e1	0.060904387
50	0xbe3bbdaf	-0.18334077
51	0xbd8cc51a	-0.06873532
52	0x3d5cfe65	0.053953547
53	0xbd700a96	-0.058603846
54	0x3adb8ced	0.0016750373
55	0x3c6708bb	0.014101203
56	0x3da414d7	0.080117874
57	0xbcbfa9f9	-0.023396479
58	0xbbdce72e	-0.006741426
59	0x3bccc017	0.006248485
60	0xbcd86016	-0.026413005
61	0x3d853bd7	0.06505554
62	0x3cc97e74	0.02459643
63	0x3dd5bde7	0.104366116
64	0x3d8ca82d	0.068680145
65	0x3dab42db	0.08362361
66	0x3d07ec3e	0.033184282
67	0x3c3966aa	0.011315981
68	0x3b9e38d6	0.0048285527
69	0xbcfff241	-0.031243445
70	0x3dbe5004	0.092926055
71	0x39a91751	0.00032251564
72	0xbd7d78f4	-0.061882928
73	0x3cd154d1	0.025553139
74	0x3b5a8eac	0.00333492
75	0x3e229daa	0.15880457
76	0xbbf7864f	-0.0075538526
77	0x3d801151	0.06253303
78	0xbd4c2830	-0.049843013
79	0x3e3066ff	0.1722679
80	0xbcd51556	-0.02601115
81	0x3dbda54f	0.09260046
82	0xbd8cf0b7	-0.0688185
83	0x3dde8136	0.10864489
84	0x3d30e349	0.043185506
85	0x3d128b30	0.03577727
86	0x3d6bde5d	0.05758511
87	0x3c956012	0.018234286
88	0xbc538d4d	-0.012912107
89	0xbd90bbe1	-0.07067085
90	0xbd9e559a	-0.07731171
91	0x3dbf9b51	0.09355796
92	0x3c652d91	0.013987915
93	0xbd8284c4	-0.06372979
94	0xbd537e6c	-0.051634237
95	0x3e045423	0.1292272
96	0x3dc84c21	0.097801454
97	0x3afcdcbe	0.001929186
98	0xbd1a5937	-0.03768274
99	0x3dbb6965	0.09150962
100	0xbd7e8e79	-0.06214759
101	0x3d5e820a	0.054323234
102	0x3da7573c	0.081709355
103	0xbd402f4b	-0.046920102
104	0xbda59424	-0.08084896
105	0xbd6da0fc	-0.058014855
106	0xbd717f5d	-0.058959354
107	0x3ced44b1	0.028963419
108	0x3cc7ef7b	0.024406185
109	0x3cceaac2	0.025227908
110	0xbc114227	-0.00886587
111	0xbd81be7d	-0.06335161
112	0x3c0d69fc	0.008631226
113	0xbc8c1bef	-0.017103164
114	0xbc906da2	-0.017630402
115	0xbd806cca	-0.0627075
116	0x3ced42c7	0.028962506
117	0xbc057b02	-0.008147003
118	0x3d379adc	0.04482542
119	0xbd881021	-0.06643701
120	0x3df2cee3	0.11855867
121	0xbd59473e	-0.053046457
122	0xbd2fe565	-0.042943377
123	0x3cc3d1a1	0.02390367
124	0x3ce70b05	0.028203497
125	0x3dc2307b	0.09481903
126	0xbd4064ea	-0.04697124
127	0x3d1c4ee7	0.038161185
128	0xbce21372	-0.027597163
129	0x3ca5a689	0.020221012
130	0xbd675ac6	-0.056483053
131	0x3dbf56b5	0.0934271
132	0xbd56aabc	-0.05240892
133	0xbd74f8e1	-0.059807662
134	0x3c620b8a	0.013796696
135	0xbd7c15eb	-0.06154434
136	0xbd60d9ba	-0.05489514
137	0x3d116a86	0.03550198
138	0x3cfab203	0.03060246
139	0xbcd85255	-0.026406446
140	0x3dd5cf0a	0.1043988
141	0xbd8c18fd	-0.06840704
142	0xbd6e82ca	-0.0582302
143	0xbd160817	-0.03662881
144	0xbd888520	-0.066660166
145	0xba8cf8df	-0.0010755322
146	0x3c660c44	0.01404101
147	0x3d8a54de	0.067544684
148	0xbceafa6d	-0.028683865
149	0xbcf72813	-0.030170476
150	0xbd853da6	-0.06505899
151	0x3d697fba	0.057006575
152	0xbd84833c	-0.064703435
153	0xbd2db984	-0.04241325
154	0xbcfe428a	-0.031037588
155	0x3dbda274	0.09259501
156	0x3db5a3f9	0.08869166
157	0x3dcd38e4	0.10020617
158	0x3d0f2bc2	0.03495384
159	0x3d931e52	0.071835175
160	0x3bc94fbb	0.006143538
161	0x3ded7c23	0.11595943
162	0xbd411f01	-0.04714871
163	0x3d89c420	0.06726861
164	0xbc214ed5	-0.009845455
165	0x3d926e58	0.07149953
166	0x3cb21bd4	0.021741785
167	0x3de41b8f	0.11138069
168	0x3d0293af	0.031879123
169	0xbd5b9549	-0.053609166
170	0x3d946cff	0.07247352
171	0x3d963740	0.07334757
172	0x3e09326f	0.13398145
173	0xbc6b618e	-0.014366521
174	0xbd7e0b73	-0.062022638
175	0x3cde77e2	0.027156774
176	0xbd738630	-0.059454143
177	0xbda893a1	-0.08231283
178	0x3dacf7d7	0.08445709
179	0xbd60ccaa	-0.054882683
180	0xbd41a9ae	-0.04728096
181	0x3d128efa	0.035780884
182	0xbba5169a	-0.0050380947
183	0xbd58d4a9	-0.052937184
184	0x3e058bd5	0.13041623
185	0x3d557427	0.052112725
186	0x3d34d84f	0.0441516
187	0xbcf5082d	-0.029911125
188	0x3db04a23	0.086078905
189	0xbd553ffa	-0.052062966
190	0xbd10a0aa	-0.03530947
191	0x3d2f41e2	0.04278744
192	0x3dee9a5f	0.11650538
193	0x3c76f4c7	0.015073008
194	0xbd66c058	-0.056335777
195	0x3db2b482	0.087258354
196	0x3d31f90e	0.043450408
197	0xbd3a14c2	-0.045429952
198	0xbd91307c	-0.07089326
199	0xbd8dd4d2	-0.06925358
200	0x3d341c18	0.043972105
201	0x3dd6797b	0.10472389
202	0x3d9e8103	0.07739451
203	0xbcfb71cc	-0.030693911
204	0x3c32a391	0.010903255
205	0xbd58b3c2	-0.052905805
206	0x3d959251	0.07303298
207	0xbd31e22b	-0.04342858
208	0xbb844adf	-0.0040372456
209	0xbc8a7f3a	-0.01690637
210	0x3d92da20	0.0717051
211	0x3d5acd6f	0.053418573
212	0xbd3daa8b	-0.04630522
213	0xbc89cb0b	-0.016820451
214	0x3dcf1f68	0.10113412
215	0xbd445bdf	-0.047939178
216	0xbd70dbfc	-0.058803543
217	0x3cee4559	0.029085802
218	0xbcf6697b	-0.030079594
219	0x3c505197	0.012714765
220	0x3d971255	0.073765434
221	0x3d569265	0.052385706
222	0xbd5abfae	-0.053405456
223	0xbd701aba	-0.05861924
224	0xbcccb9a8	-0.024990872
225	0x3cf2ae7b	0.029624214
226	0xbd47da2c	-0.04879205
227	0xbb08f27d	-0.0020896487
228	0x3e255649	0.16146196
229	0x3d4303f4	0.047611192
230	0xbd227054	-0.039657906
231	0xbe01c038	-0.12670982
232	0x3c8381d7	0.016053123
233	0xbd3c1db2	-0.045926757
234	0xbd82bdfa	-0.063838914
235	0xbcae94e8	-0.021311238
236	0xbd8a7896	-0.06761281
237	0x3db735d2	0.08945812
238	0xbbbd4128	-0.0057755895
239	0x3d89c505	0.067270316
240	0x3d7c9c9f	0.061672803
241	0xbdb934fe	-0.090433106
242	0x3d4d36a2	0.05010093
243	0x3d81e9cf	0.063434236
244	0x3c2d2abc	0.010569271
245	0x3bf78da5	0.007554727
246	0xbd3bf777	-0.045890298
247	0x3dc318dc	0.09526226
248	0x3dc32dda	0.0953023
249	0x3dc50685	0.09620384
250	0xbcee9060	-0.029121578
251	0xbd192e97	-0.037397947
252	0xbc5768d1	-0.013147549
253	0x3d0e86a9	0.03479639
254	0x3c9842df	0.018586574
255	0x3dc48411	0.09595502

fc.bias f4 [2]
0	0x3cc0b8f6	0.023525696
1	0xbc2319ae	-0.009954853
